checkpoint_actor.pth (torch_old, 541507 bytes, 6 tensors)

fc_layers.0.weight f4 [400, 33]
-0.40975055 0.13995472 0.5311832 1.2857339 -0.63258106 0.9212852 0.37795272 0.50832593
-0.45376256 -0.90019995 0.096560754 -0.103038765 0.15607141 0.11433914 -0.049036283 0.522791
-1.0635612 1.1750829 -0.5613094 -0.56819606 0.00140111 0.14411604 0.5965914 -0.07148854
0.08061651 0.14876509 0.7134057 -0.47759148 0.2034396 -0.010142993 0.4629717 -0.008459497
5.139131 -0.5202624 0.6996732 0.4411266 -1.9850073 0.3650063 -0.3542964 1.1784239
0.17036057 0.046729974 -0.56861097 -0.65973634 -0.71616167 -0.5678105 -0.0008312113 0.3959166
0.21346977 -1.1207886 -0.38191175 -1.888076 1.7846091 0.033883285 -0.8073279 1.0572182
0.19965233 -0.110093325 -0.49364176 0.113970414 1.4826105 -0.6856466 -0.024720525 -1.4619558
0.029194567 -1.071469 0.48985767 0.682776 0.10439402 -0.2972833 -2.3124824 0.058926616
0.025587644 0.12967788 0.5129358 -1.4852275 -0.34622082 0.19089356 -0.24864708 -0.07905798
0.32037008 -0.77885514 -0.335068 0.9180392 0.06526339 0.19192961 -0.45425004 0.5368413
0.8154852 0.106061704 -0.24944411 -0.16115023 0.42471308 1.8491527 0.10676399 -0.03851547
-1.8096478 -0.00076122954 -2.10188 -0.5630493 0.76407176 1.0362135 -0.0781593 -1.0471184
-0.6891684 0.11797029 -0.3408952 0.28553802 -0.2351863 -0.25930366 0.363777 0.12568985
-0.46941763 -1.0603703 -0.81223726 -0.03747007 -0.15624343 -0.6480021 -0.6048413 0.2754473
0.3832258 0.36624154 0.13955964 -0.18107334 -0.17847696 0.6825236 0.3530593 0.56513697
-0.02374754 -0.40585035 0.032007705 -0.7309557 -0.18318331 1.9526527 -0.80138314 -0.5552538
-0.21226126 0.70382047 0.6662476 -0.32815742 -0.090781406 -0.58165026 -0.012922893 -0.05230054
-0.31823102 0.059197437 0.24551262 0.38748303 -0.21597809 0.19710688 -1.2561278 -0.028404213
-0.1842192 -0.1903402 0.3744599 0.14079934 -0.55493104 -0.4148439 -0.052945774 1.1179415
-0.037025176 -0.027659208 -1.1002756 0.04361814 2.2617147 0.10598527 0.77371585 -0.3278481
-1.5511658 1.0887154 -2.261356 2.0591338 -0.2660159 0.2869756 -0.39976287 -0.22650398
0.02785663 0.6252763 0.39344215 -0.19089527 0.2658604 0.06598143 0.21566716 1.9372673
0.6032201 -0.22040905 0.30569753 -0.27590364 -0.57004845 0.11963388 -0.7121539 0.2463996
1.8833718 0.3767404 -0.03545674 -1.8305523 0.029723708 1.6355233 -0.8313231 -0.42188036
-0.06445106 -0.095474124 0.05201809 -1.1239451 -0.7506192 -0.19933273 -0.11791856 -0.07089282
0.6015831 -0.28552553 -0.39840773 -0.14220995 0.70272714 -0.32071725 -0.8413389 0.12945035
-1.2644776 2.4655282 0.21583499 -0.2079011 0.11693634 0.2984125 0.39567256 0.04096282
0.6670239 0.8529753 0.7317979 -0.044609454 -0.9060121 0.035798427 -0.19390479 0.046625696
-0.54851913 0.4836285 0.78522074 1.2184988 0.4224429 0.15517104 0.1668989 0.37623146
-0.5656671 0.1402935 0.18662181 0.13778763 0.22139266 1.738324 -0.3127683 1.6885552
-0.44222608 -1.5696898 1.0252455 -0.18046321 -0.26330397 -0.56461376 -0.05283924 0.13987714
00000000: d3ca d1be 4a50 0f3e 9ffb 073f ee92 a43f
00000010: d5f0 21bf 59d9 6b3f 0583 c13e a621 023f
00000020: 9153 e8be 8173 66bf a5c1 c53d fd05 d3bd
00000030: 2fd1 1f3e a42a ea3d 45da 48bd a2d5 053f
00000040: c622 88bf 1e69 963f f9b1 0fbf 4c75 11bf
00000050: 73a5 b73a 2893 133e 37ba 183f 9568 92bd
00000060: 451a a53d e055 183e c2a1 363f df86 f4be
00000070: 7852 503e cc2e 26bc a00a ed3e b499 0abc
00000080: c373 a440 eb2f 05bf c81d 333f 59db e13e
00000090: b814 febf 1be2 ba3e 5666 b5be 98d6 963f
000000a0: 0073 2e3e ee67 3f3d 7d90 11bf 7be4 28bf
000000b0: 5f56 37bf 075c 11bf a5e5 59ba 95b5 ca3e
000000c0: d297 5a3e 0076 8fbf f089 c3be 79ac f1bf
000000d0: 126e e43f 33c9 0a3d 0bad 4ebf ed52 873f
000000e0: a971 4c3e 9c78 e1bd 9dbe fcbe 5269 e93d
000000f0: 2ec6 bd3f 8986 2fbf b382 cabc 5e21 bbbf
00000100: 7229 ef3c e525 89bf a0ce fa3e 68ca 2e3f
00000110: 88cc d53d 8435 98be b6ff 13c0 095d 713d
00000120: 2e9d d13c 47ca 043e c34f 033f ef1b bebf
00000130: db43 b1be 9a79 433e 579d 7ebe 26e9 a1bd
00000140: 8c07 a43e 0d63 47bf 088e abbe 9e04 6b3f
00000150: d0a8 853d 3289 443e 7693 e8be 6e6e 093f
00000160: a3c3 503f e136 d93d 476e 7fbe 9104 25be
00000170: fe73 d93e 09b1 ec3f 14a7 da3d 66c2 1dbd
00000180: 8aa2 e7bf 408d 47ba 3485 06c0 0024 10bf
00000190: 359a 433f a5a2 843f fc11 a0bd fa07 86bf
000001a0: 576d 30bf 689a f13d d189 aebe 0a32 923e
000001b0: add4 70be 73c3 84be fb40 ba3e d7b4 003e
000001c0: 8257 f0be 37ba 87bf c8ee 4fbf 377a 19bd
000001d0: 47fe 1fbe 77e3 25bf e1d6 1abf 6e07 8d3e
000001e0: 2c36 c43e 0384 bb3e b9e8 0e3e 4a6b 39be
000001f0: aac2 36be deb9 2e3f 30c4 b43e d1ac 103f
00000200: 338a c2bc 9ecb cfbe 831a 033d ea1f 3bbf
00000210: 6894 3bbe 86f0 f93f 7227 4dbf 1d25 0ebf
00000220: 045b 59be 942d 343f 348f 2a3f 4004 a8be
00000230: 9aeb b9bd 08e7 14bf 8bba 53bc 1739 56bd
00000240: 2def a2be 0379 723d a967 7b3e 2d64 c63e
00000250: 5c29 5dbe 63d6 493e ccc8 a0bf f4af e8bc
00000260: f5a3 3cbe 8be8 42be 35b9 bf3e b42d 103e
00000270: f60f 0ebf 6b66 d4be abdd 58bd b518 8f3f
00000280: b6a7 17bd 9095 e2bc d5d5 8cbf efa8 323d
00000290: efbf 1040 ce0e d93d 3e12 463f b5db a7be
000002a0: 9a8c c6bf 075b 8b3f 0fba 10c0 d9c8 0340
000002b0: 3c33 88be 77ee 923e b8ad ccbe a9f0 67be
000002c0: 9633 e43c 1c12 203f 4071 c93e 0d7a 43be
000002d0: db1e 883e 4621 873d dad7 5c3e 60f8 f73f
000002e0: a26c 1a3f e9b2 61be 6384 9c3e 3e43 8dbe
000002f0: b2ee 11bf 9c02 f53d b84f 36bf 2d50 7c3e
00000300: 5412 f13f 1ee4 c03e 163b 11bd 8a4f eabf
00000310: 227f f33c d458 d13f 97d1 54bf b400 d8be
00000320: ebfe 83bd f087 c3bd ec10 553d 6fdd 8fbf
00000330: 9428 40bf e11d 4cbe 497f f1bd 4130 91bd
00000340: 5a01 1a3f 6730 92be 19fc cbbe 7c9f 11be
00000350: ede5 333f 0d35 a4be fc61 57bf a28e 043e
00000360: 67da a1bf 37cb 1d40 d903 5d3e 07e4 54be
00000370: 527c ef3d 86c9 983e 9895 ca3e a1c8 273d
00000380: 14c2 2a3f 975c 5a3f 1b57 3b3f 67b8 36bd
00000390: 69f0 67bf 5fa1 123d fa8e 46be 96fa 3e3d
000003a0: c06b 0cbf 289e f73e 3a04 493f c5f7 9b3f
000003b0: 704a d83e 28e5 1e3e 8ce7 2a3e 69a1 c03e
000003c0: 8fcf 10bf 19a9 0f3e ca19 3f3e 3318 0d3e
000003d0: c2b4 623e 6781 de3f 2b23 a0be 9422 d83f
000003e0: 756b e2be 98eb c8bf 3f3b 833f 59cb 38be
000003f0: c7cf 86be 878a 10bf f56d 58bd f43b 0f3e

fc_layers.0.bias f4 [400]
0.5657587 -1.5647166 -1.9867303 -0.39839396 -1.2274171 -1.7576872 -0.8311882 -1.4537867
-2.2350864 -0.7371116 -0.15016378 -1.9105263 -1.9292499 -1.9067904 -1.8952827 -1.6112956
-1.344019 -1.5992315 -0.38610983 -0.90475804 -0.7388973 -1.4248701 -1.5033809 -0.75969005
-2.0468595 -1.9388428 -0.8653697 -1.1585717 -1.7911755 -0.89429104 -0.8478013 -1.7660588
-1.4572445 -1.6874902 -1.2002739 -1.7730032 -0.58173674 -1.571856 -1.1165686 -1.6144531
0.664789 -0.3153032 1.4782048 -0.85118234 -0.68267596 -2.2848454 -1.4261513 -0.6745295
-1.3542311 -1.5413109 -1.367283 -1.3024647 -1.7928767 -1.8532547 -1.1644566 -1.3364377
-0.09147044 -0.8241926 -2.062775 -2.2496986 -1.9910475 -2.0828626 -1.1423979 -1.6295537
-1.3281386 -0.43790647 1.1421254 -1.844124 -1.3773035 -1.5024303 -1.8338147 -1.1315019
-1.1212019 -0.62832564 -1.2982408 -1.4652239 -0.614882 -0.3815511 -1.1851906 -0.9740303
-1.7089131 -2.2017899 -0.7364817 -1.4476887 -0.14632542 -1.1562487 -0.9408003 -1.2866992
-0.7943609 -2.3450103 -2.3419337 -0.72376794 -1.3435595 -1.1402339 0.7793655 -1.4877343
-1.7023019 -1.7289052 -1.4487431 -0.6445051 4.1546273 -1.276889 -0.48713902 -0.2215133
-1.0006417 -2.070306 -0.8959798 -1.918479 -1.6325476 0.20396921 -1.8946524 -1.468308
-1.8681995 -0.6629988 -0.9585603 -1.5206027 -1.0126218 -1.070786 -0.65906185 0.46178043
-1.4542925 -1.5214651 -1.8633449 -1.9681833 -0.2552642 -0.8927407 -2.2167783 -1.8791718
-1.5816008 -1.7707427 -1.5127596 -0.56866634 -0.76006 -1.2554455 -1.5508207 0.0943325
-1.0495211 -1.2661434 -1.6199509 -0.4192307 -1.7210375 -1.7781945 -1.3633518 -1.5533099
-1.6463302 -2.0502648 -1.2290609 -0.6971829 -0.64387 -1.7643939 -1.2933699 -2.0045657
-1.8592837 -2.0609837 -1.6210973 -1.1106467 -0.8837735 -1.2482177 -0.06022429 -1.0065632
-1.1276852 -1.6649646 -1.6426998 -1.619624 -1.11247 -1.662997 -0.5096272 -1.3185861
-2.1859903 -0.67268646 -1.1247245 -1.0766662 -1.314035 -1.4756094 -1.4737256 -1.7812158
-1.3782982 -2.3189154 -0.6433304 -1.6984128 -1.5341668 -1.6615312 -1.6034691 -1.6792319
-1.2736698 -1.2841789 -1.3979896 -1.3894757 -1.1864523 -0.7404999 -1.624408 -1.9084798
-1.2482196 -1.1432389 -2.0298338 -1.5459104 -0.59857184 -0.98459226 -1.545597 -1.8103265
-1.5745653 -1.756613 -1.8608596 -1.3148397 -0.3876276 -0.72759366 -0.83172303 -0.8904173
-0.3503952 -0.69741905 -1.3772745 -1.8382113 -1.7654762 -1.0447608 -0.5905399 -0.85411054
-1.9944867 -1.9182243 -2.023989 -1.1969647 -1.7277265 -2.4150116 -1.4987054 -1.3110807
-1.963063 -1.3493352 -1.847256 -2.0474048 -1.3110094 -1.2091793 -1.9901569 -2.1547027
-0.7030697 -2.3080742 -1.3904768 -1.7547829 -2.561708 -2.1182363 -0.87482905 -1.8533665
-1.2139177 -1.0457447 -1.6704818 -0.6649172 -1.6251884 -1.511454 -0.59106195 -0.32141462
-1.5364176 -1.5056255 -0.98127896 -1.4068236 -2.1618044 1.2926497 -1.0693629 -0.2856417
00000000: 90d5 103f a248 c8bf 2e4d febf 4bfa cbbe
00000010: 011c 9dbf e5fb e0bf c0c8 54bf af15 babf
00000020: a80b 0fc0 59b3 3cbf 89c4 19be 208c f4bf
00000030: a9f1 f6bf b511 f4bf a098 f2bf ef3e cebf
00000040: d108 acbf 9eb3 ccbf 30b0 c5be 399e 67bf
00000050: 6028 3dbf 2562 b6bf c96e c0bf 0c7b 42bf
00000060: bfff 02c0 002c f8bf de88 5dbf 144c 94bf
00000070: 3d45 e5bf 42f0 64bf 8209 59bf 370e e2bf
00000080: fd86 babf aeff d7bf 93a2 99bf c5f1 e2bf
00000090: b3ec 14bf 9432 c9bf b8eb 8ebf 66a6 cebf
000000a0: 9d2f 2a3f 6c6f a1be d135 bd3f 16e7 59bf
000000b0: dac3 2ebf e83a 12c0 208c b6bf f7ad 2cbf
000000c0: 7257 adbf ad49 c5bf 2103 afbf 2ab7 a6bf
000000d0: fc7c e5bf 7337 edbf ea0c 95bf 6410 abbf
000000e0: db54 bbbd 49fe 52bf 8104 04c0 10fb 0fc0
000000f0: a5da febf 9f4d 05c0 183a 92bf 3795 d0bf
00000100: 7200 aabf 4735 e0be 2a31 923f 410c ecbf
00000110: 7b4b b0bf a34f c0bf 71ba eabf 0ed5 90bf
00000120: 8b83 8fbf f3d9 20bf c12c a6bf 758c bbbf
00000130: e868 1dbf aa5a c3be 53b4 97bf 0d5a 79bf
00000140: aabd dabf 20ea 0cc0 118a 3cbf dd4d b9bf
00000150: 55d6 15be f5ff 93bf 4ad8 70bf 8fb2 a4bf
00000160: 3c5b 4bbf a614 16c0 3ee2 15c0 db48 39bf
00000170: c2f9 abbf 2ff3 91bf 7f84 473f 146e bebf
00000180: 07e5 d9bf c44c ddbf 6a70 b9bf 49fe 24bf
00000190: b5f2 8440 1971 a3bf 496a f9be 62d4 62be
000001a0: 0715 80bf e57f 04c0 ef5e 65bf b890 f5bf
000001b0: 52f7 d0bf 4edd 503e f883 f2bf 84f1 bbbf
000001c0: 2921 efbf 4aba 29bf 3564 75bf 1ca3 c2bf
000001d0: 979d 81bf 840f 89bf 47b8 28bf 7c6e ec3e
000001e0: 4226 babf 5ebf c2bf 1682 eebf 6eed fbbf
000001f0: fdb1 82be a88a 64bf b2df 0dc0 b488 f0bf
00000200: e571 cabf b2a7 e2bf 1ba2 c1bf 1e94 11bf
00000210: 4b93 42bf 70b2 a0bf 4b81 c6bf 6631 c13d
00000220: b556 86bf fd10 a2bf 8d5a cfbf 68a5 d6be
00000230: f54a dcbf e19b e3bf 5082 aebf dcd2 c6bf
00000240: f3ba d2bf 8a37 03c0 de51 9dbf 947a 32bf
00000250: aad4 24bf a9d7 e1bf 258d a5bf ce4a 00c0
00000260: 02fd edbf 28e7 03c0 1e80 cfbf ac29 8ebf
00000270: fb3e 62bf 99c5 9fbf bfad 76bd 10d7 80bf
00000280: fd57 90bf 8f1d d5bf fd43 d2bf d74f cfbf
00000290: 6b65 8ebf 16dd d4bf ee76 02bf 6ec7 a8bf
000002a0: 44e7 0bc0 2e35 2cbf f9f6 8fbf 33d0 89bf
000002b0: 4d32 a8bf c5e0 bcbf 0aa3 bcbf e1fe e3bf
000002c0: 136c b0bf 1c69 14c0 4db1 24bf 9765 d9bf
000002d0: 945f c4bf 0ead d4bf 7a3e cdbf 12f1 d6bf
000002e0: 9d07 a3bf f95f a4bf 53f1 b2bf 57da b1bf
000002f0: abdd 97bf 6791 3dbf 9aec cfbf 1149 f4bf
00000300: a9c5 9fbf a755 92bf cce8 01c0 64e0 c5bf
00000310: 013c 19bf 3d0e 7cbf 1fd6 c5bf c7b8 e7bf
00000320: 5b8b c9bf b2d8 e0bf a630 eebf ab4c a8bf
00000330: 2077 c6be 9443 3abf cdeb 54bf 63f2 63bf
00000340: 0067 b3be 0e8a 32bf 884a b0bf 824a ebbf
00000350: 20fb e1bf b9ba 85bf 9f2d 17bf fda6 5abf
00000360: 574b ffbf 6088 f5bf 0989 01c0 2436 99bf
00000370: 2426 ddbf 8d8f 1ac0 94d5 bfbf 7ed1 a7bf
00000380: a645 fbbf 04b7 acbf e272 ecbf ae08 03c0
00000390: 28cf a7bf 63c6 9abf 76bd febf a6e6 09c0
000003a0: 60fc 33bf 7db7 13c0 25fb b1bf ba9c e0bf
000003b0: 06f3 23c0 2f91 07c0 ccf4 5fbf 1d3b edbf
000003c0: a861 9bbf f6da 85bf 59d2 d5bf 0338 2abf
000003d0: 2c06 d0bf 5377 c1bf d64f 17bf 7590 a4be
000003e0: 55a9 c4bf 56b8 c0bf 1935 7bbf cc12 b4bf
000003f0: 015b 0ac0 8c75 a53f e2e0 88bf a13f 92be

fc_layers.1.weight f4 [300, 400]
0.6657328 0.5740553 -0.54506344 -0.9588197 -0.61906666 -0.012000123 -0.3093219 -0.43750384
1.1302999 1.2399459 0.04336157 0.41361246 -0.92382157 -0.13637583 0.14847721 0.95402366
-1.1301801 -0.007324829 -0.13240452 0.74252194 -0.105737165 0.1428911 -0.2263659 -0.35906374
0.11026997 0.27262154 1.3053585 0.09511026 0.5138075 -1.1080376 0.2946617 0.04145572
-0.260347 -0.10330026 -0.45720762 -0.43985167 1.7419095 0.16606134 0.20435488 -0.21169306
0.13768432 -0.8870245 -0.6195579 -0.7981252 0.3733846 0.27483234 -0.5358444 -0.6497264
-0.06453144 -0.3529651 0.8093673 -0.09255965 -0.4424177 0.85395014 0.9355242 -0.8400147
-0.37949628 0.2321187 0.6552246 0.40134335 -0.0026227208 -0.5373597 -1.032209 -0.7013141
-0.6014223 -1.6361282 0.5059416 -0.15337528 0.89258415 -0.34854785 0.35470334 -1.1271079
0.029295057 0.5810216 0.38010097 1.2096773 -0.072165936 -0.87757105 -0.007689239 -0.29131642
-1.0692981 0.2959959 -0.3503863 0.48599976 -1.5173645 0.68326694 -0.035150044 0.13124968
-1.4984179 -0.10472964 -1.3530029 -1.6356074 0.6130546 0.52712554 -0.24566428 0.53319997
0.32925507 0.7605093 0.7658448 0.31423342 -0.91478205 0.011223821 0.30252644 -1.146374
0.29993948 -1.6398244 0.36478245 -0.012584807 -0.28502283 -0.22663648 -0.72687596 -0.3996982
-0.41023716 0.29261354 -0.010283817 0.6403771 -0.09572268 1.1079541 0.7799073 -0.56504947
-0.5613993 -0.12156013 0.5226857 -0.16573925 -0.2806982 -0.50747037 -0.1692975 -0.29749936
0.37052897 -0.1325751 0.7441349 0.3197279 -1.4912714 0.5617045 0.2558021 0.21554735
0.36780706 -0.37952352 -0.43532452 -0.0045898366 -0.59297544 -0.84187114 0.5504061 -0.06863588
-0.92392105 0.14723074 -0.056064952 -0.5820444 0.2358358 0.056517422 -0.46879932 0.6770317
-1.4141339 0.15991086 0.36681378 -0.3924455 -0.288725 0.5869226 0.32940128 0.38120943
0.023544708 -0.28609964 -0.13404466 0.8081709 -0.86181974 0.13109265 -0.036528133 -0.029929917
-0.8556689 -0.52613187 1.4037994 0.27694008 -0.18901764 0.1809889 -0.68805414 1.0278686
0.020050026 0.8685684 -0.21578719 -0.04754061 -0.37188396 1.6129897 1.003066 0.23661642
-0.14355879 0.26510894 1.3481448 -1.0911438 0.083519675 -0.43847024 1.1430463 -0.14452504
0.33607924 -0.04853411 -0.17332312 -1.2035056 0.44987386 0.92799675 -0.7755577 -1.288097
0.35992587 -0.48229456 1.1845561 -1.3609703 -0.008497737 0.5577645 0.6194334 0.3977394
-0.31870183 -1.3107876 0.011194834 0.5652376 -0.8965184 1.2038798 0.41218668 -0.4377855
-0.5838687 -0.14557329 -0.22672652 -0.5311761 0.11073454 -0.43205178 -1.3484695 0.21056871
-0.7307133 0.48944885 -0.9198991 0.35976702 0.2054678 -0.2558068 0.034972012 -0.3238625
-0.02298016 1.5179261 0.48097205 -0.04683605 0.12485514 -0.14575323 0.3512618 0.5584707
0.10085279 0.89826745 0.06760885 0.31509668 -0.16341719 -0.709755 0.7258258 0.29916838
0.048648946 -0.31548643 -0.032133132 -0.11884684 0.027687158 -0.008411199 0.3836335 -0.7110162
00000000: 776d 2a3f 4af5 123f 4789 0bbf 3575 75bf
00000010: 277b 1ebf 2a9c 44bc 715f 9ebe 8100 e0be
00000020: abad 903f 8cb6 9e3f e79b 313d 03c5 d33e
00000030: 927f 6cbf 1ba6 0bbe 690a 183e e53a 743f
00000040: bea9 90bf 1f05 f0bb 0d95 07be eb15 3e3f
00000050: ba8c d8bd 0b52 123e 76cc 67be 34d7 b7be
00000060: 39d5 e13d 0d95 8b3e fd15 a73f 2bc9 c23d
00000070: e388 033f 2dd4 8dbf e6dd 963e 79cd 293d
00000080: 344c 85be 168f d3bd 1e17 eabe 3d34 e1be
00000090: e4f6 de3f fc0b 2a3e 6842 513e 11c6 58be
000000a0: 1efd 0c3e 0a14 63bf 599b 1ebf ef51 4cbf
000000b0: 442c bf3e d3b6 8c3e 192d 09bf 7854 26bf
000000c0: 0f29 84bd d7b7 b4be b232 4f3f ea8f bdbd
000000d0: 9384 e2be 7a9c 5a3f 847e 6f3f 340b 57bf
000000e0: 564d c2be 86b0 6d3e cdbc 273f e07c cd3e
000000f0: f4e1 2bbb 6890 09bf 6d1f 84bf 5289 33bf
00000100: d0f6 19bf a66c d1bf 6485 013f 690e 1dbe
00000110: 6580 643f dd74 b2be ad9b b53e 1245 90bf
00000120: 30fc ef3c d5bd 143f 989c c23e b5d6 9a3f
00000130: bccb 93bd 7fa8 60bf 03f6 fbbb 6d27 95be
00000140: c3de 88bf c68c 973e d565 b3be f6d4 f83e
00000150: 0039 c2bf 95ea 2e3f 7ef9 0fbd 5166 063e
00000160: 28cc bfbf 7e7c d6bd 332f adbf 955b d1bf
00000170: 25f1 1c3f b3f1 063f 6b8f 7bbe cb7f 083f
00000180: 1f94 a83e bdb0 423f 680e 443f 34e3 a03e
00000190: 282f 6abf 1ee4 373c bfe4 9a3e 62bc 92bf
000001a0: ab91 993e c4e5 d1bf c4c4 ba3e 8230 4ebc
000001b0: 83ee 91be 6513 68be 8b14 3abf 3ea5 ccbe
000001c0: 9b0a d2be 71d1 953e 747d 28bc c1ef 233f
000001d0: 410a c4bd 71d1 8d3f 01a8 473f 15a7 10bf
000001e0: ddb7 0fbf 84f4 f8bd bbce 053f 8db7 29be
000001f0: adb7 8fbe 94e9 01bf 535c 2dbe d651 98be
00000200: f9b5 bd3e c4c1 07be a07f 3e3f 60b3 a33e
00000210: fbe1 bebf decb 0f3f 7ef8 823e 72b8 5c3e
00000220: 3551 bc3e e850 c2be dbe2 debe 5766 96bb
00000230: 3dcd 17bf de84 57bf 6ae7 0c3f f890 8cbd
00000240: 1786 6cbf a8c3 163e 5da4 65bd dd00 15bf
00000250: f17e 713e d07e 673d 7706 f0be f351 2d3f
00000260: 5702 b5bf acbf 233e 04cf bb3e 9eee c8be
00000270: c3d3 93be 8f40 163f 49a7 a83e e22d c33e
00000280: d5e0 c03c a77b 92be 0143 09be 4ae4 4e3f
00000290: 38a0 5cbf 273d 063e 869e 15bd 962f f5bc
000002a0: 1e0d 5bbf 94b0 06bf b3af b33f 17cb 8d3e
000002b0: d78d 41be 2755 393e 5124 30bf 3391 833f
000002c0: f43f a43c 805a 5e3f 51f7 5cbe f1b9 42bd
000002d0: 9367 bebe 7276 ce3f 7764 803f 934b 723e
000002e0: 1301 13be 5cbc 873e 0290 ac3f 9aaa 8bbf
000002f0: 5d0c ab3d 2c7f e0be 574f 923f 5ffe 13be
00000300: 9412 ac3e b4cb 46bd 9e7b 31be 790c 9abf
00000310: de55 e63e 3291 6d3f f38a 46bf 5de0 a4bf
00000320: 3448 b83e 50ef f6be 899f 973f 4634 aebf
00000330: 183a 0bbc a7c9 0e3f 3093 1e3f 80a4 cb3e
00000340: e32c a3be e3c7 a7bf 896a 373c 69b3 103f
00000350: 3b82 65bf bc18 9a3f 220a d33e 6c25 e0be
00000360: 6b78 15bf 2a11 15be ff2a 68be 28fb 07bf
00000370: cac8 e23d e435 ddbe a69a acbf 539f 573e
00000380: 0710 3bbf 0a99 fa3e 827e 6bbf 6233 b83e
00000390: 2766 523e 1cf9 82be d03e 0f3d 4ed1 a5be
000003a0: e340 bcbc 674b c23f f841 f63e 28d7 3fbd
000003b0: 0db4 ff3d 5640 15be 96d8 b33e f0f7 0e3f
000003c0: e88b ce3d dbf4 653f 8276 8a3d 5a54 a13e
000003d0: d656 27be 81b2 35bf b8cf 393f 992c 993e
000003e0: 1e44 473d 7087 a1be 089e 03bd f965 f3bd
000003f0: 2ed0 e23c 20cf 09bc 9c6b c43e 2805 36bf

fc_layers.1.bias f4 [300]
-0.52775466 -0.5280193 -0.048212994 -0.6072111 -0.036115266 -0.4742692 -0.33484325 -0.36383057
-0.40133873 -0.01833251 0.023702085 -0.56170905 -1.2804672 -0.8035272 -0.12014524 -0.20667908
-0.08047872 -0.07778559 -0.15938082 -0.31860957 -0.14193794 -0.05603693 -0.029771758 -0.34979874
-0.60869104 -0.33893105 -0.011549057 -0.95529693 0.3744407 -0.64791447 -0.008695451 -0.34535745
-0.43079364 -0.09442561 -0.708443 -0.041452125 -0.03359434 -0.8365202 0.022235 -0.6704225
-0.512957 -1.0768187 -0.38486135 0.06870639 -0.86356235 -0.045713454 -0.37179503 -0.9076104
-1.4500469 -0.05514937 -1.0219655 -0.52440214 -0.8569544 -0.6409789 -1.2641815 -0.24081172
-0.040249377 -0.57575405 -0.4412773 -0.17619883 -1.0319682 -0.045199554 -0.54210794 -0.21441899
-0.2605021 -0.15370157 -0.7352088 -0.22471972 -0.55877364 -0.13896593 -0.1335984 -0.10075801
-0.16244139 -0.27194595 -0.52429837 -1.1002228 -0.5613982 0.035738647 -0.26454577 -0.06827053
-0.20834005 -0.47292265 -0.44764367 -0.59784657 -0.0690116 -1.242486 -0.10117452 -0.12227379
-0.13023616 0.10200737 -0.037610333 -0.16023874 -0.53538257 0.11379853 -0.078379735 -0.064224824
-1.0804172 -1.0322996 -0.32748076 0.053234603 0.010873434 -0.9739145 -0.9477295 -0.53754544
-0.7136855 -0.20364864 -0.77219963 -0.4054149 -0.073674716 -0.65625685 -0.541795 -0.7297268
0.02661718 -0.9284037 -0.37865955 -0.25303343 -1.4170852 -0.327543 -0.07995584 -0.12227243
-0.86923844 -0.72748494 -0.14876878 -1.2058122 0.051592205 -0.20380573 -0.4424983 -0.0063474323
-1.1446744 0.06089924 -1.1130248 -0.86712736 -0.5848834 -0.21715869 -0.026196089 -0.13578573
-0.12648696 -0.51623327 -0.542104 -0.10281779 0.105420195 -0.67206335 -0.5799212 -0.25692028
-0.6471429 -0.6852833 -0.28749165 -0.033789616 -0.06820513 -0.27785787 -1.4690219 -0.055348936
-0.32877144 -0.051982448 -0.39352143 -0.2733501 -0.12675145 -0.3678293 -0.5418703 -0.008603604
-0.63268125 -0.11477206 -0.42925754 -0.17622675 -0.23612985 -0.94258887 -1.4804702 -0.35456088
-0.86829984 -0.43662205 -0.31293574 -0.015048683 -0.0719899 -0.07883288 0.008419953 0.044036806
-0.48587814 -0.53922737 -0.057956934 -0.29860315 -1.182788 -0.6935569 -0.30095825 0.054324057
-0.13668868 -0.8332838 0.006967143 -0.30096245 -0.29760596 -0.54219264 0.012323881 0.15332998
-0.7375446 -0.096948706 -0.48505807 -0.077680506 -0.13297938 -0.8862359 0.14990322 0.30991653
0.0139939245 -0.55966544 -0.21079406 -0.6385707 -0.35457864 -0.048111483 -0.86564344 -0.736811
-0.2561243 0.3095085 0.047878355 -0.1973105 -0.43254766 -0.057443272 -1.0097423 0.3355444
-0.7131075 -0.65012306 -0.095691316 0.030210413 -0.74060047 -0.11554485 0.007302577 -0.13799089
-0.8305503 -0.37220135 -0.059033595 -1.276661 -0.80376464 -0.09033711 0.39591795 -0.5350591
-0.26322842 -0.71453327 -0.51633775 0.011864205 -1.1488384 -0.70872813 -0.1956935 -0.91198415
-0.24401909 -0.36375162 -0.80555445 -0.04477784 0.04422491 -0.066886224 -0.26955605 -0.66353804
-1.742891 0.0072102114 0.06635656 -0.017491415 -0.10099235 -0.48914778 -0.44624466 -0.9680714
00000000: ee1a 07bf 462c 07bf fd7a 45bd 3072 1bbf
00000010: 9aed 13bd 6ad3 f2be 9370 abbe 0048 babe
00000020: 457c cdbe 0f2e 96bc e02a c23c 2acc 0fbf
00000030: 59e6 a3bf f5b3 4dbf b50e f6bd aea3 53be
00000040: 07d2 a4bd 0d4e 9fbd ba34 23be cb20 a3be
00000050: 2e58 11be fb86 65bd e7e3 f3bc d218 b3be
00000060: 2dd3 1bbf 5f88 adbe 4238 3dbc 578e 74bf
00000070: b1b6 bf3e b9dd 25bf 5d77 0ebc b1d2 b0be
00000080: fc90 dcbe 3762 c1bd 855c 35bf b4c9 29bd
00000090: 389a 09bd 3026 56bf 2d26 b63c cfa0 2bbf
000000a0: 2651 03bf 32d5 89bf 8c0c c5be f0b5 8c3d
000000b0: 6c12 5dbf 083e 3bbd eb5b bebe 2859 68bf
000000c0: 239b b9bf 4ee4 61bd c4cf 82bf 383f 06bf
000000d0: 5d61 5bbf 3117 24bf b3d0 a1bf 5997 76be
000000e0: 88dc 24bd 9e64 13bf 19ef e1be 776d 34be
000000f0: 8917 84bf 2b23 39bd 96c7 0abf a790 5bbe
00000100: 8860 85be f263 1dbe a536 3cbf ed1c 66be
00000110: ca0b 0fbf 164d 0ebe 05ce 08be 375a cebd
00000120: 0957 26be 803c 8bbe 6b38 06bf 1ad4 8cbf
00000130: cbb7 0fbf b062 123d 8b72 87be 6bd1 8bbd
00000140: 1857 55be eb22 f2be 8d31 e5be 790c 19bf
00000150: f455 8dbd c809 9fbf 9634 cfbd ae6a fabd
00000160: a15c 05be 3de9 d03d 4b0d 1abd a015 24be
00000170: d50e 09bf 340f e93d 8e85 a0bd 4e88 83bd
00000180: 1c4b 8abf 6522 84bf 8fab a7be 870c 5a3d
00000190: 7d26 323c 7652 79bf 679e 72bf 949c 09bf
000001a0: 18b4 36bf 4589 50be e0ae 45bf 8b92 cfbe
000001b0: c5e2 96bd 7300 28bf 14b3 0abf 60cf 3abf
000001c0: 460c da3c ddab 6dbf aadf c1be 998d 81be
000001d0: 0c63 b5bf b7b3 a7be e3bf a3bd f869 fabd
000001e0: 6986 5ebf 743c 3abf d856 18be 0e58 9abf
000001f0: 5952 533d 73b2 50be 238f e2be 1ffe cfbb
00000200: b184 92bf 7b71 793d 9977 8ebf 0ffc 5dbf
00000210: ebba 15bf d95e 5ebe 2e99 d6bc 6a0b 0bbe
00000220: cc85 01be dd27 04bf 54c7 0abf 2292 d2bd
00000230: 8be6 d73d 580c 2cbf b775 14bf 0e8b 83be
00000240: 28ab 25bf ba6e 2fbf 1b32 93be fb66 0abd
00000250: 22af 8bbd 6343 8ebe e908 bcbf 91b5 62bd
00000260: bb54 a8be 8ceb 54bd a47b c9be 8bf4 8bbe
00000270: 22cb 01be 1f54 bcbe 03b8 0abf 21f6 0cbc
00000280: 66f7 21bf 9d0d ebbd a5c7 dbbe c974 34be
00000290: 06cc 71be 814d 71bf 0c80 bdbf 0189 b5be
000002a0: e648 5ebf ed8c dfbe 1d39 a0be c08e 76bc
000002b0: 716f 93bd 2273 a1bd d8f3 093c f05f 343d
000002c0: 05c5 f8be ce0a 0abf 4064 6dbd 83e2 98be
000002d0: 9965 97bf f28c 31bf 3317 9abe e782 5e3d
000002e0: 1ef8 0bbe 1652 55bf a24c e43b c017 9abe
000002f0: cf5f 98be 23cd 0abf 1aea 493c 8902 1d3e
00000300: b9cf 3cbf 0b8d c6bd 8859 f8be f516 9fbd
00000310: bf2b 08be 5be0 62bf 3b80 193e 61ad 9e3e
00000320: c646 653c 3c46 0fbf 66da 57be 5f79 23bf
00000330: 558b b5be 8c10 45bd cf9a 5dbf a59f 3cbf
00000340: b922 83be e677 9e3e 181c 443d c40b 4abe
00000350: e376 ddbe a349 6bbd 3c3f 81bf 7acc ab3e
00000360: 378e 36bf 776e 26bf cff9 c3bd d47b f73c
00000370: fe97 3dbf c7a2 ecbd 754a ef3b 7c4d 0dbe
00000380: f29e 54bf 2d91 bebe 36cd 71bd a169 a3bf
00000390: 85c3 4dbf aa02 b9bd c2b5 ca3e a2f9 08bf
000003a0: e0c5 86be a7eb 36bf b62e 04bf 1562 423c
000003b0: 230d 93bf 356f 35bf e063 48be cb77 69bf
000003c0: 24e0 79be a73d babe d138 4ebf f868 37bd
000003d0: 2e25 353d a5fb 88bd 4003 8abe a1dd 29bf
000003e0: 0d17 dfbf a343 ec3b f3e5 873d 284a 8fbc
000003f0: 14d5 cebd 9471 fabe 2e7a e4be 87d3 77bf

fc_layers.2.weight f4 [4, 300]
0.77087766 0.1922086 -0.2817925 1.2143601 -0.0057700616 0.043337867 0.6584197 -0.46864703
0.12721422 -0.06182871 -0.0048895674 0.8732553 -0.61322266 -0.048752915 0.592506 -0.061644252
-0.022289552 -0.048569687 -0.76891345 0.19408885 0.05332683 0.03459841 -0.08589603 -0.3571261
0.115327656 -0.04489942 0.023935456 0.29132652 -0.031047009 -0.36832276 0.25626665 -0.10077926
-0.515138 -0.65722865 -0.5042417 0.21651107 -0.0891747 0.2365322 0.3235273 -1.1369073
0.7087718 0.6342189 0.7816507 0.124692895 0.38049257 0.83382404 0.28529486 -0.33424515
0.48993468 0.08287063 -0.06797502 -0.262076 -0.58544797 -0.13005409 0.90954465 -0.08911868
0.010590516 -0.56595665 0.707693 -0.3827411 0.034257762 0.058535613 1.0353197 -0.6127646
-0.5965573 -0.5036851 0.35384676 -0.25026613 -0.81250393 0.016222278 0.11067382 -0.44614357
-0.18682307 0.39616925 0.085251205 0.57149774 -0.19913167 0.6765881 -0.78047246 -0.02096187
0.100603364 -0.8122232 1.1047634 -0.37309772 -0.011039458 0.49702471 0.8120598 -0.71127516
0.031069862 0.14105119 -0.014129796 0.27461407 -0.7717059 0.6600925 -0.015904065 0.016825719
0.13425209 0.49854177 -0.4984069 -0.24607132 0.03081273 0.6150168 0.42079213 0.012368825
-0.27519587 -0.54098886 -0.2911751 -0.27881894 -0.020840907 0.6810332 0.013471634 -0.19313456
0.012888024 -0.8296295 -0.6391573 -0.35134718 0.051469065 0.41173595 0.0089251725 -0.0938642
1.050143 -0.20503776 -0.1080384 0.54414314 -0.01895198 -0.3216825 0.00975234 -0.027252113
-0.10944945 0.0005817321 -0.14588955 -0.38952383 0.95864844 0.37834355 -0.031824864 -0.10359857
0.0057110847 -1.2587534 0.32510942 -0.004863708 -0.03371569 -0.7508811 0.9642591 -0.3821388
-1.1246833 -0.16853546 0.3006088 -0.121447034 -0.5798126 0.26878563 -0.16013364 -0.31426725
-0.055629227 0.0077887373 -0.3660172 -0.5639183 0.19604966 0.40730643 0.86326855 0.4350703
0.045754567 -0.019450383 -0.16670635 -0.2327031 0.47799337 -1.0059149 -0.17367817 -0.2850457
-0.7553174 -0.49614808 0.5792603 -0.04740783 -0.06795061 0.0048028613 0.0032626193 0.046719197
0.08932709 0.5914098 0.3699408 -0.23444334 0.012607207 -0.19929405 -1.0525494 -0.043228514
1.1958605 -0.26769263 -0.028443329 1.0559431 0.08166099 -0.52503794 0.039786983 -0.1426617
-0.67533416 -0.0036090484 -0.5207406 0.02228909 0.016828563 0.21202452 -0.22389907 0.5028327
-0.4125649 -0.26916638 0.71124756 0.3258439 -0.31056473 0.0045752153 -0.006620714 0.964791
-0.13889241 -0.24321353 -0.01448542 0.29633456 -0.25227377 -0.009279874 0.038644735 0.15456684
0.65875375 -0.6872133 0.0019899048 -0.7362759 -0.25798967 0.010435214 -0.013278863 -0.13388444
0.15855126 0.0026820083 -0.03867511 0.6484974 0.11134406 1.1782787 0.45300362 -0.11843896
-0.25479946 -0.4760247 -0.021892367 -1.106825 -0.22087763 -0.3150322 -0.40321165 0.4506911
0.20289777 -0.16232172 0.43099174 -0.02487028 0.3669391 0.014071021 -0.32480654 -0.10665748
0.75172067 0.0048466926 -0.2289784 0.052936982 0.0044625076 -0.21794662 0.0106746135 0.27066296
00000000: 3d58 453f 55d2 443e 1b47 90be 2770 9b3f
00000010: c912 bdbb 0c83 313d 328e 283f 81f2 efbe
00000020: 7244 023e 1a40 7dbd aa38 a0bb a98d 5f3f
00000030: 29fc 1cbf 23b1 47bd 79ae 173f af7e 7cbd
00000040: 9498 b6bc 02f1 46bd 83d7 44bf 3abf 463e
00000050: 3c6d 5a3d 10b7 0d3d 42ea afbd 3bd9 b6be
00000060: e830 ec3d 74e8 37bd 4a14 c43c c028 953e
00000070: 4c56 febc cd94 bcbe 6235 833e 5b65 cebd
00000080: 15e0 03bf 2340 28bf fc15 01bf 14b5 5d3e
00000090: 3aa1 b6bd 7f35 723e 5fa5 a53e 2e86 91bf
000000a0: 1272 353f 2b5c 223f 431a 483f fd5e ff3d
000000b0: eccf c23e 7e75 553f 2b12 923e 2e22 abbe
000000c0: b8d8 fa3e 14b8 a93d 7d36 8bbd d32e 86be
000000d0: ebdf 15bf e62c 05be ebd7 683f db83 b6bd
000000e0: d883 2d3c 89e2 10bf 5e2b 353f a4f6 c3be
000000f0: de51 0c3d 0ac3 6f3d 5b85 843f 24de 1cbf
00000100: fbb7 18bf 82f1 00bf 672b b53e e222 80be
00000110: 4200 50bf 95e4 843c f5a8 e23d ee6c e4be
00000120: 8c4e 3fbe b2d6 ca3e 2f98 ae3d ad4d 123f
00000130: 2ce9 4bbe e134 2d3f 0bcd 47bf 3ab8 abbc
00000140: 2309 ce3d dced 4fbf e368 8d3f aa06 bfbe
00000150: d8de 34bc 067a fe3e 27e3 4f3f 2116 36bf
00000160: 3986 fe3c b96f 103e a980 67bc 379a 8c3e
00000170: 858e 45bf d2fb 283f 3e49 82bc 17d6 893c
00000180: 6179 093e de40 ff3e 302f ffbe 1ffa 7bbe
00000190: fa6a fc3c be71 1d3f 1172 d73e 9da6 4a3c
000001a0: 79e6 8cbe 3f7e 0abf e714 95be 5bc1 8ebe
000001b0: 8dba aabc 3158 2e3f 21b8 5c3c 11c5 45be
000001c0: 4a28 533c 9962 54bf d09f 23bf c7e3 b3be
000001d0: 3ad1 523d 0ecf d23e e33a 123c e03b c0bd
000001e0: 166b 863f 6bf5 51be 3d43 ddbd f74c 0b3f
000001f0: 2f41 9bbc 92b3 a4be 47c8 1f3c d33f dfbc
00000200: 0927 e0bd 617f 183a 1264 15be ab6f c7be
00000210: fc69 753f 3fb6 c13e ca5a 02bd 7d2b d4bd
00000220: 0d24 bb3b d51e a1bf be74 a63e bd5f 9fbb
00000230: 7719 0abd be39 40bf afd9 763f b2a7 c3be
00000240: 9ff5 8fbf 8f94 2cbe 66e9 993e 39b9 f8bd
00000250: 996e 14bf 459e 893e 13fa 23be a3e7 a0be
00000260: 79db 63bd aa38 ff3b 9b66 bbbe f35c 10bf
00000270: 3ec1 483e 788a d03e 2bff 5c3f 89c1 de3e
00000280: 2469 3b3d 6956 9fbc 12b5 2abe b949 6ebe
00000290: 8cbb f43e d2c1 80bf b1d8 31be 83f1 91be
000002a0: 7b5c 41bf 1f07 febe 674a 143f b62e 42bd
000002b0: b029 8bbd 5261 9d3b abd1 553b a15c 3f3d
000002c0: 1ff1 b63d a266 173f e168 bd3e ea11 70be
000002d0: 758e 4e3c bd13 4cbe f0b9 86bf 6210 31bd
000002e0: f511 993f 020f 89be fc01 e9bc 2529 873f
000002f0: e13d a73d e368 06bf adf7 223d e915 12be
00000300: b3e2 2cbf c985 6cbb 424f 05bf 9c97 b63c
00000310: 0edc 893c f51c 593e cc45 65be a5b9 003f
00000320: b53b d3be 2dd0 89be 5214 363f 03d5 a63e
00000330: 5702 9fbe b0eb 953b 93f2 d8bb 8bfc 763f
00000340: d039 0ebe f80c 79be 4154 6dbc 2ab9 973e
00000350: 072a 81be 9d0a 18bc f149 1e3d c546 1e3e
00000360: 16a4 283f 36ed 2fbf 1069 023b 947c 3cbf
00000370: 3917 84be 76f8 2a3c 978f 59bc 0119 09be
00000380: 435b 223e a2c4 2f3b cb69 1ebd ed03 263f
00000390: 5b08 e43d d6d1 963f 17f0 e73e 2090 f2bd
000003a0: 1375 82be 82b9 f3be 9f57 b3bc 71ac 8dbf
000003b0: bf2d 62be e74b a1be c271 cebe fcc0 e63e
000003c0: 6fc4 4f3e aa37 26be f3aa dc3e c2bc cbbc
000003d0: 71df bb3e 248a 663c 0b4d a6be 3d6f dabd
000003e0: c470 403f 01d1 9e3b 5079 6abe 73d4 583d
000003f0: 3a3a 923b 662d 5fbe 93e4 2e3c 5694 8a3e

fc_layers.2.bias f4 [4]
-0.9880556 -1.3519056 -0.07007794 -0.15259333
00000000: 36f1 7cbf 3e0b adbf 0685 8fbd 6d41 1cbe
