checkpoint_critic.pth (torch_old, 549543 bytes, 9 tensors)

fc_layers.0.weight f4 [400, 33]
000000 5c 12 47 be d8 84 60 3d c0 a0 9d 3e 07 e3 a2 3f
       -0.19440597 0.05481419 0.30786705 1.2725533
000010 de f1 e0 3f 1e f3 de be 8b 5b 0b 3f d7 94 aa bf
       1.7573812 -0.4354486 0.5443656 -1.3326672
000020 88 67 a4 3f e0 f0 52 3f 02 85 b0 3f 3c 6b 2f 3f
       1.2844095 0.82398796 1.3790591 0.68523
000030 22 54 09 bf 40 6f b3 3d b3 f3 dc be de 8e d1 be
       -0.53644 0.08761454 -0.43154678 -0.40929312
000040 8f 41 b2 3f a8 85 f8 3f b6 b9 16 be 0f 68 ba 3f
       1.3926257 1.9415789 -0.1471928 1.4563006
000050 fc 18 5e 3f 75 33 a3 3c 1a fc 29 bf 65 1d 08 3f
       0.86756873 0.019921998 -0.664003 0.5316985
000060 cd 90 08 3f ef 1b af bd 3b 91 a9 be 4c d7 3f bd
       0.5334595 -0.0855025 -0.33118615 -0.046836182
000070 0e ab 9b 3e 81 1f 47 3d cf e7 87 bc 6a 8b fd 3c
       0.30403942 0.04861403 -0.016590027 0.030950267
000080 aa ab 41 bf 3b f1 30 bf 43 8b 83 3f 63 b6 a0 bf
       -0.75652564 -0.6911809 1.0276874 -1.255566
000090 92 82 1b 3f 15 fc 05 40 a4 c0 b8 be 33 a2 34 40
       0.6074611 2.0935109 -0.36084473 2.8223999
0000a0 71 67 c0 be 59 e5 a2 be 3b b6 a1 3e ac 0e df be
       -0.3757892 -0.31815603 0.31584343 -0.4356588
0000b0 57 cd b2 3e 75 27 d1 be 2d 64 84 bd 63 7d 22 3e
       0.34922287 -0.40850416 -0.064644195 0.15868144
0000c0 6a 35 a5 be 15 01 79 bf 5f 38 ba 3d 03 a6 e6 3e
       -0.32267314 -0.97267276 0.09092783 0.45048532
0000d0 1c 6d 09 3e eb 8d 9b be 57 fc ed 3d 34 66 96 be
       0.13420528 -0.30381712 0.11620396 -0.2937485
0000e0 fc 8a 6e 3e d6 95 cb 3e 33 32 0f be 6f d7 0a 3e
       0.23295206 0.39762753 -0.13983993 0.13558744
0000f0 13 3e 15 3d f1 d8 96 3f 6c f7 36 bc 69 5b 54 bc
       0.03643615 1.1784955 -0.011167388 -0.012961247
000100 65 66 4c bd d4 92 33 40 2e ae 14 be fd 5e ac bb
       -0.04990234 2.8058367 -0.1451957 -0.005260347
000110 9b de 9c bf 53 65 3d 3d 31 ed 99 bf df fe bf bd
       -1.2255434 0.04623921 -1.202551 -0.09374785
000120 fe df b4 bf 7a bc 6b be 5a d9 dd 3e 78 70 36 bf
       -1.4130857 -0.23021117 0.4332989 -0.71265364
000130 57 00 d6 3e 90 02 10 be 46 78 be be 56 c2 be bb
       0.41797134 -0.14063478 -0.37201136 -0.0058215065
000140 0e 12 b4 bf 72 33 9d 3e 05 3f c7 3f 5f 90 7a be
       -1.406801 0.30703312 1.5566107 -0.24469136
000150 82 e7 2f c0 4a 30 de 3f a3 a4 d8 3e 26 6f 29 bd
       -2.748505 1.7358487 0.42313108 -0.041365765
000160 6e 8f 5f be 53 2a 11 3f ef e5 36 bf 25 cf 6e 3f
       -0.21832058 0.56705207 -0.714446 0.9328483
000170 5d cf 0e 3d b6 8f 4c bd 58 03 38 3e c8 09 43 bc
       0.034865726 -0.04994174 0.17970026 -0.0119041875
000180 4f ef fd 3c 7b 7b 17 3d 0c 21 42 bf 32 85 68 be
       0.0309979 0.036982995 -0.75831676 -0.2270706
000190 8b 89 a9 bf a7 a9 42 3f 93 2e 8d bf c7 22 3c 3f
       -1.32451 0.7604012 -1.1029838 0.73490566
0001a0 2d b2 e5 bf 4a d5 d9 3f 12 db 02 bf d1 13 e3 be
       -1.7945 1.7018216 -0.51115525 -0.44351056
0001b0 6d 81 88 3d 13 3a 7b 3e 1f b3 70 bb bf 77 40 be
       0.06665311 0.24533872 -0.0036727858 -0.1879568
0001c0 91 8d 0b 3f 15 df 1c 3f 85 aa 0b 3f cb 4a 91 bf
       0.5451289 0.61277896 0.5455707 -1.135095
0001d0 8f c4 10 c0 f2 fe e4 be 94 7f 83 bf d5 19 ea 3d
       -2.261997 -0.44725758 -1.0273309 0.11430708
0001e0 39 b7 4d bf 71 ab 8f 3e 31 51 45 3f fa 99 f4 be
       -0.803577 0.28060487 0.77077013 -0.47773725
0001f0 cb 84 12 bf d8 f4 b1 be 8b fe 47 3d a0 ee 54 3f
       -0.57233876 -0.34757113 0.048826735 0.8317661
000200 80 f3 9a bc bc 7a e4 39 49 09 4a 3d bf 3c a6 bf
       -0.018914938 0.00043578993 0.04932526 -1.2987288
000210 73 ae 0f bf 69 55 8b be cd 50 c4 3e 9e 23 2a be
       -0.56125563 -0.272136 0.38342896 -0.1661515
000220 a3 e4 11 3e 2e 15 d3 3f 46 c8 b1 3f a6 cc 04 3e
       0.14247374 1.6490839 1.3889244 0.12968692
000230 e9 e3 42 3e f0 4c 72 3e 36 b8 ab be ba 85 e7 be
       0.19032253 0.23662162 -0.3353898 -0.45219213
000240 fe 81 37 bd d1 c2 b6 3e 02 19 31 be 53 cf 0b be
       -0.044801705 0.35695508 -0.17294696 -0.13653307
000250 97 0a 7f bf f0 98 17 c0 e6 28 88 bd a4 d8 a7 3e
       -0.99625534 -2.3687096 -0.06648426 0.3278247
000260 9d 12 81 bb 3e 08 10 bf fc 5c 00 be a1 1a 28 bd
       -0.0039389865 -0.56262577 -0.1253547 -0.04104102
000270 cf cf 88 be bb ae b2 3e 83 5b 26 bf bf a2 f8 bc
       -0.26721045 0.34898934 -0.64983386 -0.03035104
000280 16 30 f1 3e 43 10 c8 bc 93 3c 2a bd 18 73 1a bc
       0.47107 -0.024421817 -0.041561674 -0.009426855
000290 56 84 af 40 4c 65 3e 3f b0 de 38 3e 5d 1c 05 3d
       5.4849043 0.74373317 0.18053699 0.032497752
0002a0 fd b1 19 3e 33 53 87 3e 09 b6 9e bf 7e d9 12 40
       0.15009303 0.26430663 -1.2399303 2.2945247
0002b0 19 0f cd be aa d8 94 3c 37 37 c4 3f 7f 7e ed 3e
       -0.4005058 0.01816972 1.532935 0.4638557
0002c0 2c 04 a9 3d d6 2a 2c 3f 56 3c 50 3e 98 4a 69 3f
       0.08252749 0.6725286 0.20335516 0.91129446
0002d0 e0 8f ed bd 21 a5 94 bf 22 4c 20 3f a1 0b 33 40
       -0.115997076 -1.1612893 0.6261617 2.7975848
0002e0 0e f5 b1 3f 95 99 82 be 4e 63 2c be 1f 8f 05 be
       1.390291 -0.255078 -0.16834757 -0.13042878
0002f0 b3 b3 fd 3c d3 58 71 bd 4a fa b8 3f 0a 7e 18 bf
       0.030969476 -0.0589226 1.4451382 -0.5956732
000300 d9 7a 8b bc e3 e8 78 3c 63 49 20 3d 97 db f3 bc
       -0.017026352 0.015192243 0.039132487 -0.029767795
000310 5e a1 b5 3c f0 11 0c 40 15 be 29 3d 07 dc d7 3b
       0.022171672 2.1885948 0.041441042 0.0065875086
000320 0c 7d 26 3d 23 ad ce 3c 31 68 54 bd 24 e5 8d 3c
       0.040646598 0.025229042 -0.051857177 0.017321177
000330 d2 39 3e bd 6c 66 8f 3c e2 c0 b8 3c c7 b3 de bb
       -0.04644186 0.017504893 0.022552911 -0.0067963335
000340 08 1a 6e bd 00 8e 97 bc 2f ad 8e 3c 5d 82 44 bd
       -0.058130294 -0.018500328 0.017416565 -0.047975887
000350 b6 51 be 3a f9 d6 fe 3c ef d1 ff 3c 8d 4c dc 3c
       0.0014520201 0.031108366 0.031228034 0.026891971
000360 bf 6e 82 bc fe 24 0d 3d ae 33 13 3d 26 0c 20 3d
       -0.015921948 0.034459107 0.035937957 0.039074086
000370 7d 50 41 3c f8 09 d6 3b 8e 01 8c bd e2 e8 47 bb
       0.011798975 0.00653195 -0.06836234 -0.00305038
000380 5a a1 40 3c fe 3a 0f bd a3 b5 33 39 eb c8 4c 3d
       0.011757219 -0.03496837 0.00017138435 0.049996298
000390 1a b1 ba 3c f4 92 53 bc da 6d 42 3d b3 99 f9 be
       0.022789527 -0.012913454 0.047468044 -0.48750076
0003a0 88 71 10 bf ca 08 95 3f dd ca f9 3f b1 1d b2 bf
       -0.56423235 1.1643307 1.9515034 -1.3915311
0003b0 bd 65 f2 3e 0c 8f 05 c0 b9 33 d4 be 05 11 cb bf
       0.47343245 -2.086856 -0.4144571 -1.5864569
0003c0 bd 45 86 3b 4d 87 e3 be 37 86 52 3e e6 25 47 bf
       0.004097669 -0.44439164 0.20559011 -0.77792203
0003d0 fb 7f 3c 3f a7 48 b0 be 58 e9 72 bf 44 76 4d 3f
       0.7363278 -0.3443043 -0.94887304 0.80258584
0003e0 f8 47 99 bf c4 f9 74 3e 72 a8 02 bf fe b2 81 3e
       -1.1975088 0.23923403 -0.5103828 0.25331873
0003f0 0e 5e 3a bf 2d 53 92 3d 5c d2 fc 3e a6 58 5c be
       -0.72799766 0.07144771 0.4937924 -0.21518192

fc_layers.0.bias f4 [400]
000000 f9 0d 06 3e 93 b6 60 bd f8 38 2b be 48 47 71 39
       0.13091268 -0.054861616 -0.1672095 0.00023010105
000010 13 4d 11 be 70 34 c4 3d dc 21 30 3d 9e 03 fc 3d
       -0.14189558 0.09580314 0.04300104 0.123053774
000020 74 c1 7e bc a0 88 01 be 19 2e 0f 3e 7e 92 00 be
       -0.0155490525 -0.12649775 0.13982429 -0.12555882
000030 29 e1 df 3d f7 0c c5 3c 38 1a 74 3d a1 ad 07 be
       0.10931618 0.024054034 0.059595317 -0.13249828
000040 f4 19 13 be b8 5a ac bd af ec eb bd cd d8 19 be
       -0.14365369 -0.08415741 -0.11519753 -0.15024109
000050 6b 32 45 bd ec 79 2a 3e 14 84 06 3e b7 73 1f 3e
       -0.048143785 0.16648072 0.13136321 0.15571485
000060 c0 8a 3b 3d d5 84 05 be fc 89 e4 3d 34 af 2e 3e
       0.04578662 -0.13038953 0.11159131 0.17059022
000070 84 56 e2 bd 93 3a 50 bb 5b 58 1e 3d 40 17 c9 3d
       -0.11051658 -0.0031773194 0.03865848 0.09818888
000080 3a da 41 3c 00 f5 30 be 7d d4 a7 bc fc 35 f3 bd
       0.011831814 -0.1728096 -0.020487064 -0.11875531
000090 06 f6 c2 3d 21 b9 fb 3d c5 fc 7e 3c 4a 82 15 be
       0.095195815 0.1229117 0.015563195 -0.14600483
0000a0 42 07 69 bd 23 ba 7d bd 2e 2f a5 3d a8 f0 d9 3d
       -0.056891687 -0.061945092 0.080656394 0.10641605
0000b0 f5 40 e2 3d 1a 99 65 bd d3 f9 8e 3d b6 65 32 bd
       0.11047546 -0.056054212 0.06981244 -0.04355403
0000c0 30 0d 5e 3c 63 7c 19 3b 14 f5 0e be 29 e7 2f 3d
       0.013552949 0.0023420088 -0.13960677 0.04294506
0000d0 4f c7 9e 3b 7f ee bb bc 95 17 2f be bb 12 f5 bd
       0.004845537 -0.022940872 -0.1709884 -0.11966463
0000e0 00 85 1b 3e fa 35 2d be d5 b9 9a bd 91 59 a1 bd
       0.15187454 -0.16915122 -0.07554976 -0.078784116
0000f0 dc 1d dc 3d f9 b3 11 bd 2d aa 10 be 1e 53 06 3e
       0.10747883 -0.035572026 -0.14127417 0.13117644
000100 14 a0 1e 3e 64 48 df 3c 31 3f 10 be 32 01 c5 3d
       0.15490752 0.027256198 -0.14086606 0.096193686
000110 63 85 9d 3d d3 ad ca 3c 72 a2 90 bc 6f 56 06 3d
       0.07691457 0.024741089 -0.017655585 0.032797273
000120 dd 14 09 be 53 43 04 3e a1 88 ac bb 74 e6 23 be
       -0.13386865 0.12916307 -0.005265311 -0.1600588
000130 53 49 11 3e f8 ec 83 bd 74 50 6c 3c 56 91 9f 3d
       0.14188127 -0.064416826 0.014423478 0.077913925
000140 da 31 1f 3d 05 a3 0c 3e d2 26 23 be 39 d3 42 3d
       0.0388659 0.13734062 -0.15932778 0.04756472
000150 a6 f9 71 39 9c 5b f7 bb 66 26 d4 bd 3e ce e8 bd
       0.00023076552 -0.0075487625 -0.103588864 -0.113674626
000160 12 a2 7c 3d fb 3b 59 3c 90 d2 c7 3b 5f 68 ce 3d
       0.061678 0.013258929 0.006098099 0.10078501
000170 80 9a ce 3c 51 32 4a 3c 81 bf e6 3d 06 f6 73 ba
       0.025220156 0.012341098 0.11266995 -0.00093063747
000180 de 4c 25 3e 81 58 12 be f1 12 a3 3d e6 18 35 3d
       0.16142604 -0.14291574 0.07962597 0.044213198
000190 c9 4c 91 3c 75 7e 53 bd 47 83 0a bd 6d 33 55 3d
       0.01773681 -0.05163427 -0.033816602 0.052050997
0001a0 c9 6f 68 3c 89 e0 0f be 74 c5 1c be b0 52 b2 bd
       0.014186808 -0.14050497 -0.15309697 -0.08707178
0001b0 4c 7c 2e be 7c 98 6f bd 7b 94 3a 3d 04 0a d0 bd
       -0.17039603 -0.05849503 0.04555176 -0.1015816
0001c0 30 43 e6 3c ad 1f 28 3e 7c e5 aa bd f8 9d 22 3e
       0.02810821 0.16418333 -0.08344552 0.15880573
0001d0 47 68 0e bc fe f2 2d be b1 de 3c bd 4d a6 fe 3c
       -0.008691854 -0.16987225 -0.046110813 0.031085158
0001e0 ee 18 0c 3e 1e a9 68 bd 0e 6c fa bd 4d 77 1b 3e
       0.13681385 -0.056801908 -0.12227641 0.15182228
0001f0 f4 de f7 3c a9 b7 47 bd f0 27 a2 bd 5b f1 94 3d
       0.03025768 -0.048759136 -0.07917774 0.072725974
000200 b4 3b 15 3e 99 80 32 bc a5 3a 07 3d 45 38 25 3d
       0.14573556 -0.010894918 0.033014912 0.040336866
000210 7b 0f cb bc ed ab b4 3d 0d 56 28 3e e4 da a9 3d
       -0.024787655 0.08821855 0.16439076 0.08293703
000220 d6 5a 10 3e e6 a1 52 3d 30 7a 06 bd 03 8e 4e 3d
       0.14097151 0.05142393 -0.03283137 0.0504284
000230 4e 6c cb bd d6 65 65 bd e1 7e 06 3d db 5f 63 3d
       -0.09932767 -0.05600532 0.032835845 0.055511337
000240 9b df 0c be 07 6b 32 3d 2b 0d ca 3d 16 a3 0d be
       -0.13757174 0.0435591 0.09865793 -0.13831744
000250 ac 3a 85 3d b8 c5 47 bd a4 ba eb 3d 74 e1 2c 3e
       0.065053314 -0.048772544 0.11510208 0.16882879
000260 0a a6 b3 3d cb bf 0b be 49 1d 77 3d eb f7 b0 bd
       0.08771904 -0.13647382 0.060330663 -0.086410366
000270 68 cd 00 3e 83 2c 70 3d 3c 6b 9c 3d 4a c6 04 be
       0.12578356 0.0586362 0.07637641 -0.12966266
000280 16 5b 2f be ba 06 e0 bd 25 9f 24 3e fa c7 a7 3d
       -0.1712459 -0.10938783 0.16076334 0.081924394
000290 4b f8 3e 3d 16 aa 0e be bd d0 54 bd 28 97 ed 3b
       0.04662351 -0.1393207 -0.05195688 0.0072506852
0002a0 4a 44 d3 bc aa 9a 23 3e b1 66 2c be 0f f7 01 bd
       -0.025789399 0.15976968 -0.16836049 -0.031729754
0002b0 fd 91 ef 3d 37 34 e6 3d bc d1 07 be 12 87 a4 3d
       0.11697767 0.11240428 -0.13263601 0.08033575
0002c0 34 c5 76 bc 06 25 e4 bd 56 9e 7e bc 3c 4b 06 be
       -0.015061665 -0.11139874 -0.01554068 -0.13114637
0002d0 dc 41 56 bd 2c 16 32 3e f8 d8 15 be 7d 62 0f be
       -0.052308902 0.1739127 -0.14633548 -0.14002414
0002e0 6c c2 cc 3d b3 98 d3 3d 38 f5 e4 bd bd 5b 3a bd
       0.099980205 0.103318594 -0.11179584 -0.045497645
0002f0 cc a5 4f ba 79 ea 10 be b4 ec 3d 3c 86 d5 60 bd
       -0.0007921129 -0.14151944 0.011592079 -0.05489113
000300 4f a6 5e bd c1 11 78 3d 70 05 b0 bd 6d a7 76 3c
       -0.054357823 0.060563806 -0.08594787 0.015054566
000310 1b 6a 21 3e 62 54 06 3e f6 4f f0 3d e1 c8 15 3e
       0.15763132 0.13118127 0.11734001 0.1462741
000320 bf ec 84 bd 7f 23 21 3e b4 c8 25 be 6f 35 29 3e
       -0.06490468 0.15736197 -0.16189843 0.1652429
000330 e7 17 31 3e 81 61 b7 3d e8 1f 15 3c 20 9a 39 3d
       0.17294274 0.08954144 0.009101845 0.045313
000340 cd 19 b2 bd 0d 12 d8 bd b1 62 e6 bd ba f5 cb 3d
       -0.08696327 -0.10550318 -0.11249293 0.09958978
000350 14 9d 0d be 00 2a 7b 3c ed 4d 75 3d 16 7c 04 be
       -0.13829452 0.015329838 0.05988877 -0.1293796
000360 a1 2c fd bd 11 b4 1b 3b dd c2 16 be d1 94 ba 3c
       -0.12362028 0.002375845 -0.14722772 0.02277604
000370 3b fc f9 bd 65 14 e8 bd 0b d7 9f bd cc 50 28 3d
       -0.12206312 -0.11332015 -0.07804688 0.04109268
000380 88 37 51 bd 02 af 20 be 7d 69 9d bd cc 42 56 bd
       -0.05107835 -0.1569176 -0.07686136 -0.052309796
000390 cc 54 0d 3e 06 2a 06 3e 7e 0d 4f 3c 58 f4 8b 3d
       0.13801879 0.13101968 0.012637494 0.06833714
0003a0 70 21 30 be c6 a8 59 bc 4f b9 b2 3d f4 1e 82 3d
       -0.17200255 -0.013284868 0.08726751 0.0635356
0003b0 90 4e a7 bd 08 5c ea 3d fe bc 82 3d 2f 7f e1 bd
       -0.081692815 0.11443335 0.06383704 -0.110105865
0003c0 59 f6 32 3d 2c d3 0d be fc 57 e0 3d 69 db f1 3d
       0.043691967 -0.13850087 0.10954282 0.11809427
0003d0 7f 20 63 bb 8a e8 8a 3d ad 53 c6 bd 8c 0b af bd
       -0.003465682 0.067826346 -0.09683929 -0.08547124
0003e0 6e 31 07 bd 76 bb f5 bd 5f fc f8 bc c2 e4 8d ba
       -0.033006124 -0.11998646 -0.030393777 -0.0010825621
0003f0 45 f1 9f bd be 74 e1 3d 5b 66 69 3d 70 b6 c3 3d
       -0.078096904 0.11008595 0.05698238 0.095562816

fc_layers.1.weight f4 [300, 404]
000000 c0 d6 63 3c 89 44 a0 bd bd 6c cc bc 68 30 a2 bd
       0.013906181 -0.07825572 -0.024954194 -0.07919389
000010 a7 8a 0b bb 65 b5 3e bd c0 67 03 bd b1 29 da 3a
       -0.002129236 -0.04655971 -0.032081366 0.0016644505
000020 fa cf 17 bd 05 71 6c 3c 9f 43 1b bc 48 fd 32 bd
       -0.037063576 0.014431243 -0.009476571 -0.04369858
000030 5b 80 37 3c 7c ea db bc 91 f6 35 bc 73 44 eb bc
       0.011200036 -0.02684521 -0.011106149 -0.028719163
000040 a0 cd 0f 3d 8f e6 a3 3c 33 38 63 bd e6 3f 05 3c
       0.03510821 0.0200074 -0.055473518 0.00813291
000050 90 0d f3 bb 8b 9a cd 3c 4c 00 9d 3c 2e 24 33 3d
       -0.0074173883 0.025098106 0.01916518 0.043735676
000060 90 5b e4 bd 81 7d 9c bc 00 98 5a 3d 89 2e 9d bd
       -0.11150277 -0.019102814 0.053367615 -0.076748915
000070 84 cd ef 3b df 0c 0f bd 26 ec 33 bd 7f 29 16 bd
       0.0073182005 -0.034924384 -0.04392638 -0.036660668
000080 78 dd 0a bd f4 e2 1c 3c eb 1b 0b bc bf 9d 4e 3d
       -0.033902615 0.009575594 -0.008490543 0.050443407
000090 b0 d1 f5 3c 34 7e 45 bd 14 27 1e 3d 96 1c 93 3c
       0.030007213 -0.04821606 0.038611487 0.017957967
0000a0 f8 47 11 be b2 27 fd 3b 28 b8 04 bc f4 93 82 bd
       -0.1418761 0.0077256793 -0.008100547 -0.06375876
0000b0 07 31 e0 bd 04 76 99 bd 4b 20 a2 bd e8 f5 9c bd
       -0.10946851 -0.07493213 -0.07916316 -0.076640904
0000c0 bb 0b 81 bd 1f 6d c3 bd 43 f8 3c 3a d4 ee 24 bd
       -0.063010655 -0.095422976 0.0007208625 -0.040266827
0000d0 b7 ac ca bc 52 be ce bc 6a b7 73 bc af bb 8a bd
       -0.02474056 -0.025237236 -0.014875272 -0.06774079
0000e0 be d5 0b 3d 1b 69 5f bd e5 9b 86 bd 52 96 78 3c
       0.034139387 -0.054543596 -0.06572703 0.015172558
0000f0 fc df 13 3d bf 24 af 3b be fd 88 bd 4e 87 2a bd
       0.03610228 0.0053449566 -0.066890225 -0.041632943
000100 75 e5 75 3c 4f 81 d4 3c 1d 35 eb 3b b5 ce a0 bc
       0.01500832 0.025940565 0.0071779625 -0.019629816
000110 bb 88 68 bd 41 cc f1 3c da 14 ca bd 97 e9 1e bc
       -0.05677102 0.029516341 -0.09867258 -0.009699247
000120 ea bb ee bc 1d 4a cd 3b b8 15 bb bd e7 c3 02 bd
       -0.029142339 0.0062649385 -0.09135002 -0.03192511
000130 b4 82 6d 3c a4 31 10 3c 7f 8a db bb 20 b4 aa bd
       0.014496494 0.008800898 -0.0066998596 -0.08335137
000140 f0 25 65 3a 85 52 a7 bd cc 83 d1 bc 2f 07 00 bc
       0.000874131 -0.08170036 -0.025575541 -0.007814213
000150 61 8d 0a bd 8c 1e 02 be 50 a3 bf bd d0 96 b9 bc
       -0.033826236 -0.12706965 -0.09357321 -0.02265492
000160 62 28 34 3d 66 7f c1 3c e5 4e 7b bd 5f c9 87 bc
       0.043983825 0.023620319 -0.061354537 -0.016575513
000170 b5 ef d5 bd cd 1c df 3b 66 81 ca bd 68 d0 1a bc
       -0.10446111 0.0068088532 -0.09887962 -0.009449102
000180 16 08 85 bd da 36 11 3d 7b 15 04 3c 57 13 60 bd
       -0.06495683 0.0354527 0.008061762 -0.054705944
000190 d9 f3 db bc 88 0e 9b bc 2a 41 e3 ba 91 af 3b 3d
       -0.026849674 -0.018927827 -0.0017338146 0.04582173
0001a0 3a 22 cc bc 73 05 50 bc f9 d3 87 3c b7 1c aa bd
       -0.024918664 -0.012696612 0.016580569 -0.08306258
0001b0 d3 64 e4 bc e9 d9 ed 3a 5b b8 6c 3d 2a ca 03 3d
       -0.027880108 0.0018146607 0.057793003 0.03217522
0001c0 4c ec af bb ca fe b0 3c 16 5e 67 bd 5d 41 59 bd
       -0.005368745 0.021605868 -0.05648621 -0.05304085
0001d0 5c 8a ee bc ea 30 f2 bc ab 5c eb bc ca 62 55 3b
       -0.02911871 -0.02956434 -0.028730711 0.0032560104
0001e0 83 9c d2 bd 43 30 59 3c 8c ef a5 3c 1c 4e 00 3d
       -0.102837585 0.013256135 0.020255826 0.03132449
0001f0 79 68 08 be 0d aa 31 3b 93 22 8a 3c 00 22 67 bd
       -0.13321103 0.0027109415 0.01686219 -0.05642891
000200 15 3d df bd c9 4d 0d bd cd 21 ad bd 73 47 4d bd
       -0.10900322 -0.03449801 -0.084537126 -0.050116967
000210 50 f4 8a bd b2 61 a9 bb 0a 9a a6 bd 97 33 a8 bd
       -0.0678488 -0.005169117 -0.08134849 -0.08212965
000220 8b 46 af bd f7 2b 90 bd c5 6a 6b bd 7d 44 87 bd
       -0.08558377 -0.07039636 -0.05747487 -0.0660486
000230 a6 15 0b bd eb 14 aa bd d9 4e 58 3c 16 57 fe 3b
       -0.033956192 -0.08304771 0.0132023925 0.0077618463
000240 eb ac 96 bd 76 2e 1d bd 87 cd e7 bc e5 60 97 bd
       -0.073572 -0.038374387 -0.028296245 -0.07391528
000250 14 86 6e bc 80 d4 50 3d ad 31 88 bd 94 9e 92 bd
       -0.014558334 0.050983906 -0.066501 -0.071591526
000260 35 f4 80 bd 39 41 1e bd 98 a3 d7 bb 64 d9 de 3c
       -0.06296579 -0.03863642 -0.006580781 0.02720327
000270 95 4c b4 bd 3c 16 45 bd 05 ae b3 bc 77 fc 68 3c
       -0.08803669 -0.048116907 -0.021933565 0.014220349
000280 5e 2f f9 bd d2 80 4e bc 7f 52 0f 3c 60 b3 8e bd
       -0.12167238 -0.012603955 0.008747696 -0.06967807
000290 9b db 22 bc 36 4c b3 3c be 96 49 bd 8b 5e de bc
       -0.009940053 0.021886926 -0.049216025 -0.027144691
0002a0 39 f9 1d 3d b1 2b 7a bd 3b 0c a2 bd c5 06 a7 3b
       0.038567755 -0.061076824 -0.07912489 0.0050972425
0002b0 99 61 25 bc 42 03 72 bc 81 d5 1d 3c 2d bb 38 bd
       -0.01009407 -0.014771285 0.009633423 -0.04510038
0002c0 ab 27 d8 bc 2a 64 ce bd 71 c0 44 bd f6 5f d8 bd
       -0.026386103 -0.100776985 -0.04803509 -0.10565178
0002d0 45 45 cc bd b8 90 09 bd 3a 76 cc bc 52 9a 6e 3c
       -0.099741496 -0.03358528 -0.024958719 0.01456316
0002e0 bc 8a 10 3d 9e 07 27 bc ee 37 e1 3c 43 2f 94 bc
       0.035288557 -0.010194687 0.02749249 -0.018088942
0002f0 ab e9 93 bd 6d 82 7f bd f6 a6 9b bd ad 82 6f bd
       -0.07222303 -0.062380243 -0.07600205 -0.05847423
000300 3e 6d 49 bd 4a 15 26 3d 59 f4 ce bc 45 b9 9a bc
       -0.049176447 0.040547647 -0.025262998 -0.018887172
000310 3b 48 10 bd 63 14 1e bd 17 7c f4 bd c1 94 88 bb
       -0.035225134 -0.03859366 -0.11937731 -0.0041681235
000320 b4 e6 30 bd 0f 90 15 bd d8 07 41 bd de 93 2f 39
       -0.043188766 -0.036514338 -0.04712662 0.00016744385
000330 9f b2 2b bd 0f 0a 7b bd 72 5a 42 bc 26 af c5 3c
       -0.041918393 -0.06128889 -0.011862384 0.024131369
000340 1b 80 81 bd e0 04 41 3b 87 5d 74 3b d1 01 97 b7
       -0.06323262 0.0029452369 0.0037287192 -1.8001449e-05
000350 8c aa 2c bd 16 dd a4 3c 1a 89 65 bc 8b 03 42 3d
       -0.042154834 0.020124953 -0.014009738 0.04736666
000360 bf 66 46 bc a9 c7 cb 3c 98 bd a1 bd 89 de 1a bd
       -0.0121094575 0.024875479 -0.0789749 -0.037809882
000370 42 d6 29 3d 97 ce b3 bc d7 fc 23 3d df 51 be bd
       0.041464098 -0.021949096 0.04003605 -0.092929594
000380 3d da c4 bd b9 94 fd bc 1a 7c 9d bd 9a 43 5b bd
       -0.09611938 -0.030954706 -0.07689686 -0.053531267
000390 96 7a 51 bd 08 31 05 bd af 59 80 bd 6e 74 c5 bd
       -0.051142298 -0.032517463 -0.06267106 -0.09641348
0003a0 31 c3 90 bd 63 5f 6f bd c0 37 21 bd 4c df 8a 3c
       -0.0706848 -0.058440577 -0.039359808 0.01695218
0003b0 7a 7e ad 3c 3a 20 23 3d 63 fd e3 bc 96 2f 68 3d
       0.021178473 0.039825656 -0.027830785 0.056686006
0003c0 08 6e b6 bd 31 8e 36 bd de 4e b4 bd 11 1e 8a bd
       -0.089077055 -0.044569198 -0.08804105 -0.06744016
0003d0 08 57 95 3c 0d bc 27 bd 0a b6 ec bc b6 74 1e bc
       0.018229976 -0.040950824 -0.028895397 -0.009671381
0003e0 43 f9 7b bd ca 1b d0 bb d2 e7 3e bd 80 89 1a bd
       -0.06151701 -0.006350969 -0.0466078 -0.037728786
0003f0 4e 99 a8 b8 e2 b3 12 bd 26 16 9a bd dd ce 0a 3d
       -8.0394195e-05 -0.03581608 -0.07523756 0.033888686

fc_layers.1.bias f4 [300]
000000 c7 92 eb bd 80 c0 4d 3f 79 ba 1b bf f5 f0 d5 bd
       -0.11502605 0.80371857 -0.6083141 -0.104463495
000010 15 3a aa bd 9a 23 3e be b4 75 a1 be 9f 39 4f be
       -0.083118595 -0.18568268 -0.31535113 -0.20236824
000020 7b 38 a2 3f 98 e6 72 3f 97 24 5d bd 53 60 7a bd
       1.2673486 0.9488311 -0.053989973 -0.06112702
000030 91 1a b8 3f 35 dc 1b bf 98 d0 78 bd 4e d5 14 bc
       1.4383107 -0.60882884 -0.060745806 -0.009084059
000040 52 70 b5 3f 69 af e9 bd c3 68 36 bd 75 18 ee bd
       1.4174902 -0.1141041 -0.044533502 -0.116257586
000050 7e 3a 1a bf a9 09 98 bd 9f c8 75 3f e8 e9 ac bd
       -0.602455 -0.074237175 0.9600925 -0.084430516
000060 1b 55 82 bd e3 c0 08 bd 77 ce d6 be a5 30 85 bd
       -0.06363889 -0.033387076 -0.41954395 -0.06503419
000070 d4 85 eb 3e 17 7d c2 bd 1d 8a e4 bd 40 22 04 bd
       0.4600054 -0.09496515 -0.111591555 -0.032259226
000080 0b ed 06 be 0d 17 ab be 38 3f a7 be bb 27 e6 bc
       -0.13176362 -0.33416024 -0.3266542 -0.028095117
000090 7e d5 0b 3f cd 89 ac bc e0 9f c2 bd ef 9f fb bd
       0.5462264 -0.021061802 -0.0950315 -0.12286364
0000a0 63 3c 98 bf 9b 09 00 bd e9 09 98 3f 88 64 38 3f
       -1.1893429 -0.03125916 1.1878024 0.720284
0000b0 9e f1 03 40 49 dc 2a bd 0e 09 aa 3f d1 bf f2 bd
       2.0616221 -0.041713987 1.3284013 -0.11852992
0000c0 d0 82 3c 3f 41 d4 9d bc f1 6f 78 bd 5e d0 fd be
       0.73637104 -0.01926625 -0.06065363 -0.49573034
0000d0 ef 49 2f bd ab a6 fd bd 72 bf be bd a1 a7 36 40
       -0.042795118 -0.12385305 -0.09313859 2.8539813
0000e0 c1 9a 82 bd b5 62 89 bd 99 d9 23 40 90 2c e5 bc
       -0.06377173 -0.0670828 2.560156 -0.02797535
0000f0 28 65 88 bd f2 5b 12 3e f6 cc 9d be e5 bc 8f bd
       -0.06659919 0.14292887 -0.30820435 -0.07018451
000100 45 dc dd 3e ce 44 a8 bd f6 e2 11 3f 20 e0 15 3e
       0.43332115 -0.082162485 0.5698694 0.14636278
000110 c8 db 37 3f 80 d2 04 bd c9 9f 23 be 8c 5b d8 bd
       0.71819735 -0.03242731 -0.15978922 -0.10564336
000120 98 35 03 bf 91 a2 c7 bd ad 7e 91 ba e2 d9 f4 bd
       -0.5125365 -0.09747804 -0.0011100374 -0.1195562
000130 45 b3 d0 bd 92 df d9 bd dc a4 b3 3f 90 f2 1f bd
       -0.10190443 -0.10638346 1.4034686 -0.039049685
000140 f6 5c 24 bd 44 6d 2a bf a5 6d 41 bd 24 3c 30 bd
       -0.040127717 -0.66572976 -0.047223706 -0.043026105
000150 e8 04 ac be 45 d7 a1 bd 3c 85 e4 bc ee 9b 99 3f
       -0.33597493 -0.079023875 -0.027895562 1.2000711
000160 fd cf 88 3f fb bc 1a 3e 05 80 d4 bd 7c 92 92 3d
       1.0688473 0.15111153 -0.1037598 0.07156846
000170 ad b4 c3 3f 1c e1 95 bd ba e8 eb 3f a4 74 72 3f
       1.5289513 -0.07318327 1.8430398 0.9470923
000180 28 f8 e1 be eb c9 03 bd b3 2c 77 bf c2 42 6f bd
       -0.4413464 -0.032174986 -0.9655258 -0.058413275
000190 f4 c6 1c be 5b b9 a8 3f e6 ed 05 bd 67 1a 27 bd
       -0.1531027 1.3181566 -0.03269758 -0.040796664
0001a0 ef 6a d1 bd 04 86 b5 bb af b8 9a be e0 d3 58 3f
       -0.10225474 -0.0055396575 -0.30219027 0.84698296
0001b0 a1 f8 ca 3e 5b aa e9 bd a0 e9 00 be 7a 7e 8e bd
       0.39642814 -0.11409446 -0.12589121 -0.06957717
0001c0 26 ef 91 3f 6f d5 0d 3f 1f ff 27 bd 30 58 a1 bf
       1.1401107 0.554038 -0.041014787 -1.2605038
0001d0 a1 bf a5 bd 3c 6e dd bd 79 a3 d1 be b9 f8 df bd
       -0.08093191 -0.10812041 -0.40945032 -0.10936112
0001e0 4c 77 af 3e 0e c4 84 bd 47 0d a4 3f a3 cd 91 3f
       0.34270704 -0.06482707 1.2816552 1.139088
0001f0 4a 5e 51 3f 84 ae 29 be 36 64 7f bd 10 63 ee bd
       0.817845 -0.16570479 -0.062351428 -0.116399884
000200 e2 e4 9a bd bf 49 85 3f b0 a6 14 bf ff dc c7 bd
       -0.07563187 1.041313 -0.58066845 -0.097589485
000210 c0 8e 8c bd d6 c4 3a be 32 33 5f bf 1c 32 c5 bd
       -0.06863165 -0.1823915 -0.8718749 -0.09628698
000220 f4 f6 99 3f e5 65 e7 bd e4 7c c5 bd 66 e6 58 bd
       1.2028489 -0.11298732 -0.096429616 -0.0529541
000230 97 03 d2 be d0 a2 d7 bd 71 29 ec bd 88 b5 d9 bc
       -0.41018364 -0.10529101 -0.11531342 -0.026575819
000240 43 38 15 bd ad d7 17 be e5 00 15 bd f3 81 89 bd
       -0.03643061 -0.14828368 -0.036377806 -0.06714239
000250 e6 b7 ba bd 45 18 bf bd 4f a8 54 bd 07 e5 78 3f
       -0.09117107 -0.09330801 -0.051918324 0.9722447
000260 97 06 ac bd b1 55 b7 bd c7 db e9 be d6 56 d7 bd
       -0.083996944 -0.08951891 -0.4567549 -0.105146095
000270 66 f8 5c bf db d9 7e 3f 2f 65 8e bd 07 21 56 3a
       -0.86316526 0.9955117 -0.06952893 0.00081683736
000280 f5 e4 12 3f 4e 96 64 bc 43 b0 b3 be 20 43 f4 3e
       0.5738061 -0.013951851 -0.35095415 0.47707462
000290 40 a4 4e 3e ed ea 3b be 24 52 a9 3f db 02 d4 bf
       0.20179844 -0.18351336 1.3228192 -1.6563371
0002a0 f2 9b 81 bd 8e dd cb bd 99 e2 e3 3e ca 3b 3c bd
       -0.06328572 -0.099543676 0.44508818 -0.045955457
0002b0 26 ad ff bd fd 4f b5 bd e1 40 c9 3c 03 99 96 3f
       -0.12484197 -0.08853147 0.02456707 1.1765445
0002c0 58 e1 18 be ea 7d b8 bd e4 6c 2e bd 83 c2 2b 40
       -0.14929712 -0.09008391 -0.042584315 2.683747
0002d0 82 6a 48 3f 35 06 e1 be ad 2d 67 bd b9 e4 d0 bd
       0.7828752 -0.43950048 -0.056440044 -0.101998754
0002e0 3c 78 c0 bd f9 67 cb 3e 45 24 a0 bd 0a 88 37 be
       -0.09397933 0.39727762 -0.07819418 -0.17922989
0002f0 7e 98 62 3f 87 d7 26 3f dc 00 51 bd e6 a1 98 bd
       0.88513935 0.6517262 -0.05102621 -0.07452755
000300 90 1b 12 be 1e b0 8e bd ef 35 13 be e4 91 0f be
       -0.14268327 -0.069671854 -0.14376043 -0.14020497
000310 ee 09 ee be 45 cb 85 bd e6 bc 6f bd 52 67 fa bd
       -0.4649195 -0.06532911 -0.058529757 -0.12226738
000320 d1 1b 30 bd 1e 51 fb be bc d0 8b bd 79 ba 97 bd
       -0.042995278 -0.49085325 -0.06826922 -0.07408614
000330 50 ac 6f bd 9e d9 a4 bf 99 20 d2 bd 8e 7c c0 3f
       -0.05851394 -1.2878911 -0.10260124 1.5038011
000340 64 81 aa 3e 07 27 21 bd 80 81 64 3f 4d eb 52 be
       0.33301842 -0.03934386 0.892601 -0.20597573
000350 9b 35 48 3f 49 b0 cf bd c0 7f e2 bd 86 80 72 bd
       0.78206795 -0.101410456 -0.11059523 -0.0592046
000360 6a d9 90 bd 96 e2 af bd 41 55 63 be c6 8d 78 be
       -0.070727184 -0.0858814 -0.2220049 -0.24272832
000370 27 d2 c2 bd a4 50 f1 bd d1 7c 0e be 86 8f f4 bc
       -0.0951274 -0.11782959 -0.13914801 -0.029853594
000380 77 73 26 be 6e fc 19 be cb f1 46 bf 0a b8 2f bd
       -0.16254984 -0.150377 -0.77712697 -0.042900123
000390 6d 54 85 bd 0a 42 5b 3d 3b 47 2f be 5e f3 ee be
       -0.065102436 0.053529777 -0.17117016 -0.4667005
0003a0 e1 cf 94 3f 36 6a 8f bd ca 7d 5b bf af ea 38 3f
       1.162594 -0.0700268 -0.85738814 0.722331
0003b0 52 ad 85 bd d6 b5 b3 bc 70 c3 18 3e c5 d8 81 bd
       -0.06527199 -0.021937292 0.14918303 -0.06340174
0003c0 7c d5 97 be 8c 03 77 3f e5 78 b1 bd e1 7a 1c bd
       -0.29655063 0.9648979 -0.08665637 -0.038203124
0003d0 18 50 ca bd d9 e8 74 bd f0 52 9e bd 95 50 05 be
       -0.09878558 -0.059792373 -0.07730663 -0.13019021
0003e0 25 ec bb 3f f8 84 07 be dd c9 b2 bd 9b 43 71 bd
       1.468144 -0.13234317 -0.087299086 -0.058902364
0003f0 2f 0a 4c bd 84 02 9a 3f d8 38 19 be 8e 2f 5a bd
       -0.0498144 1.2032018 -0.1496309 -0.053268008

fc_layers.2.weight f4 [1, 300]
000000 47 11 a8 bc 4c 78 87 3f 2d ba 7c bd 3c bd 44 3c
       -0.020516051 1.0583587 -0.06170099 0.012008008
000010 29 0a 82 bc fe 96 cf bd 3a d5 b7 bd ce b7 b2 bd
       -0.015873985 -0.10136221 -0.089762166 -0.08726464
000020 88 a6 70 3f 20 04 7e 3d 07 52 9f bc 6c 51 1a 3c
       0.94004107 0.062015653 -0.019448293 0.009418827
000030 af df 9e 3d 83 ca b1 bd c3 4b 27 3d ff 68 8c 3c
       0.07757508 -0.08681204 0.040843736 0.01713991
000040 bc 1e d3 3d fa 4b 70 bc a5 6c 9e bb 7b b7 bc bb
       0.103085965 -0.014666552 -0.004834729 -0.0057591773
000050 56 84 14 be 98 b7 a1 3c 44 aa 9f 3d 43 b4 b7 bc
       -0.14503607 0.019740865 0.077961475 -0.022424823
000060 71 21 ca 3c 10 49 b3 3b bb a9 8d bd 60 83 22 bb
       0.02467415 0.005471356 -0.06917139 -0.0024797544
000070 3b ca cf 3f 29 26 b0 bb f4 81 69 bc b8 d8 ab 3b
       1.6233591 -0.005375643 -0.014252175 0.0052443407
000080 2d 94 e3 bc 8a 5e 41 bd 06 39 f5 bd c6 03 78 bd
       -0.027780617 -0.0472093 -0.11973767 -0.060550474
000090 98 89 98 3e b8 2e 75 3c 52 87 1e 3c 2a 3e 73 b9
       0.29792476 0.014964752 0.009675818 -0.00023197444
0000a0 74 fe 49 bd ce 2d 18 3d a2 0f f2 3f e2 ae 86 3f
       -0.04931493 0.037153058 1.8911021 1.052212
0000b0 69 8f 0e 3e 57 8a 96 3c 58 3a ee 3f 94 43 4d bc
       0.13921894 0.018376512 1.8611555 -0.012528319
0000c0 4b ce a8 3f fc fa 62 bc f4 8a c7 bc b2 eb 93 bc
       1.3187956 -0.013853785 -0.02435825 -0.018056724
0000d0 f0 d2 2c bc 68 a3 f8 3a f8 86 d8 bb 71 6d 72 3d
       -0.010548338 0.0018969597 -0.0066078864 0.059186403
0000e0 cf f2 89 bc 64 46 f8 bb c2 ac 51 3d fc 6b 03 bc
       -0.016839413 -0.0075767506 0.051190145 -0.008021351
0000f0 e3 f3 ea bd 20 c3 91 3d f8 90 8b bd 11 09 81 bc
       -0.11472299 0.07117295 -0.0681476 -0.015751394
000100 85 25 36 be 31 a8 b8 3c fd ed d8 3f 7e 0b 39 be
       -0.1778775 0.022541137 1.6947628 -0.1807079
000110 8f f9 89 3d b2 5f 08 3c 0d b8 97 bb 43 ee 1a 3b
       0.06737053 0.008323597 -0.004630095 0.002364055
000120 76 81 aa bd ff 92 c6 bb 80 f4 2f bc 8e 57 ae 3b
       -0.08325474 -0.006060004 -0.010739446 0.005320496
000130 7b 8c 36 3c c9 21 8d bc 32 fe 0f 3e 04 ec a1 b9
       0.011141892 -0.017228024 0.14061812 -0.00030884158
000140 f0 12 da b9 1b d8 7b bd 47 b1 29 bc be b9 b4 3c
       -0.0004159431 -0.06148539 -0.010357208 0.022061225
000150 0f 2b a4 bd 08 bb cc 3b bc 84 80 bb 87 86 55 3e
       -0.08016025 0.006247882 -0.003922073 0.208521
000160 b1 bb 44 3e a6 ce 12 be 70 96 45 3c 68 8e dd bd
       0.19212224 -0.14336643 0.012059793 -0.108181775
000170 e0 aa b8 3d 0a 1c c1 bc c2 69 52 3d c4 cc a8 3d
       0.09016967 -0.02357294 0.05137039 0.08242181
000180 1b c9 bc bd b1 46 1d ba e3 70 7b bd 4b 61 2c bb
       -0.09218045 -0.00059996085 -0.061386954 -0.0026303108
000190 0f 53 87 ba ed e5 10 3e 3a 57 d6 3b 80 16 cb bb
       -0.0010324436 0.1415021 0.00654116 -0.0061977506
0001a0 16 ad e7 bd ac e7 a3 3b c8 1f 93 bd 57 41 9c 3d
       -0.113123104 0.0050019827 -0.07183796 0.0762965
0001b0 6f 83 42 3d 04 98 03 3c 84 db 09 ba c0 af 91 3c
       0.047488626 0.008031849 -0.00052588456 0.017784
0001c0 9c 42 87 3d 9a 4f e9 3e d2 7b 78 ba 8e 43 82 bd
       0.066045016 0.45568544 -0.00094789 -0.06360541
0001d0 1a 0a 31 bc c2 23 24 bb bf 8c d6 bd b5 10 e1 3b
       -0.010805631 -0.0025045727 -0.10476064 0.0068684467
0001e0 02 82 5e 3e 91 11 f3 3b ab 61 52 3d 51 6e 61 3e
       0.21729282 0.0074178656 0.051362675 0.22014739
0001f0 92 6d 08 3f 75 7c 08 be d0 88 86 bc 0e b3 15 3c
       0.5329219 -0.13328727 -0.01642266 0.009136928
000200 0c 62 22 3c 89 e2 a9 3d d0 59 c3 bd bd 7b eb 3c
       0.0099110715 0.08295161 -0.09538615 0.028745526
000210 06 42 1d bd cf 70 f3 bd 81 60 ca bd 5d da 9f 3c
       -0.038393043 -0.11886751 -0.09881688 0.019513303
000220 c2 d5 5d 3f bd 55 5b 3b e5 a5 d0 bc 7b 29 cf bc
       0.86654294 0.0033467852 -0.02546973 -0.025288334
000230 99 11 47 bd 1f d4 15 3a d7 59 c6 bc e9 1f 8a bb
       -0.048600767 0.00057155074 -0.02421276 -0.00421523
000240 b4 4e 9a 3a f9 45 e1 bc e7 4c 85 3b 65 89 bd 3a
       0.0011772723 -0.027499186 0.0040680054 0.0014460502
000250 1b 3a 79 3c 08 31 b4 bb b4 b0 1b 3c 20 01 d1 3d
       0.015211607 -0.005499009 0.0095025785 0.10205293
000260 d3 8a 74 bc b2 4d 1c 3c 05 96 86 bd 3b 2b a6 bc
       -0.014925676 0.009540008 -0.06571583 -0.020284286
000270 38 fe 9f bd 0b 87 66 3d 46 7d 4c 3b 98 cf 16 be
       -0.0781216 0.05628113 0.0031202598 -0.14727628
000280 d2 39 c3 3f 3d b5 fc bb ca f3 bc bd 79 e4 95 3f
       1.525202 -0.007712035 -0.092261866 1.1710349
000290 6d 09 7c 3f 3f f7 01 be 03 80 07 3e d9 f2 19 bd
       0.9845188 -0.12691973 0.13232426 -0.037585113
0002a0 13 c5 64 bc df 86 87 bb 46 23 c3 3e 65 5e 3f bc
       -0.013963002 -0.004135951 0.3811285 -0.01168022
0002b0 0e d6 c7 3b 83 8b f0 3b 06 36 b7 bd b2 4d b4 3e
       0.0060985154 0.00734085 -0.08945851 0.35215527
0002c0 85 53 1e 3c ce 6e 10 3b 33 76 a4 3c 78 f0 41 3d
       0.009663467 0.00220387 0.020075893 0.04734847
0002d0 fb f2 9a 3d 93 69 83 bd 2c c3 3b 3c a2 17 9e 3c
       0.07565876 -0.06416621 0.011460107 0.019298378
0002e0 b8 c1 04 bc 35 3c 23 3e 55 c3 36 bb 59 33 8d be
       -0.008102827 0.15940936 -0.0027887423 -0.27578238
0002f0 31 33 b1 3d 50 3c 3d 3f 81 84 b5 3c b0 c5 fd bb
       0.08652342 0.73920155 0.02215791 -0.0077445135
000300 92 13 1c 3b 2c 7f 03 bd 7f 21 ea 3b 51 bc 3f bd
       0.0023815376 -0.032103702 0.0071451063 -0.046810452
000310 48 e2 97 bd 0b df ef ba 65 c5 90 3b ef 77 c4 3c
       -0.074162066 -0.0018300725 0.0044180625 0.02398297
000320 85 39 f1 ba d5 02 85 bd 87 f3 d4 bc 9a 21 d8 3c
       -0.0018403983 -0.06494681 -0.02599503 0.02638321
000330 50 c8 f1 3a 4b a9 54 bd b8 6d 33 3c 9d 2a 72 3d
       0.0018446539 -0.051919263 0.010951452 0.05912267
000340 5c 18 08 3f ba 1d 05 bb f0 f8 ab 3d 0d d0 e3 bd
       0.5316217 -0.0020311908 0.083970904 -0.11123667
000350 bf cf 85 3e dd cc 2a bc 6d 39 31 3c 5a 55 24 bc
       0.2613506 -0.01042482 0.010816914 -0.010030115
000360 61 0e 30 3c a9 9f 8e 3c 74 41 16 be d6 f4 d8 bd
       0.010745616 0.017410116 -0.14673406 -0.10593574
000370 d6 07 88 bc 00 16 19 3b aa 8c a1 3c 14 7c 01 3c
       -0.016605299 0.002335906 0.019720394 0.007903118
000380 79 99 8b 3c c5 5b 1a 3c f3 2b 78 bd 16 3f 2c bd
       0.017040955 0.009421294 -0.06058879 -0.04205235
000390 5e 97 31 bc 41 5a f4 bd 63 93 8a bd a5 c4 b0 bd
       -0.010839311 -0.11931277 -0.06766393 -0.08631257
0003a0 9f ed 0b 3d a4 e3 69 bc 42 b0 7d bd 5f 0c 94 3d
       0.03416216 -0.014275465 -0.06193567 0.07228922
0003b0 3a 9c 80 3a 6f 49 61 3c a8 73 ce bd 6c 02 fe bb
       0.0009812184 0.013750418 -0.100806534 -0.0077517536
0003c0 8b ba a2 bd 03 33 c8 3d 15 f7 74 bc 2c 0f c5 3b
       -0.079457365 0.09775355 -0.014951487 0.0060137715
0003d0 44 d0 5d 3a 0a ba 92 ba 7c 74 4b bc aa 91 61 bc
       0.0008461515 -0.001119436 -0.012417909 -0.013767639
0003e0 32 fd 76 3d 5c 18 58 3c 17 d3 a4 bb 50 04 51 b9
       0.06030006 0.0131894015 -0.0050300467 -0.000199334
0003f0 8d 55 fc 3b 02 b5 8c 3f 9e a4 18 bd ba 0e 03 3c
       0.007700628 1.0992739 -0.037266366 0.007999117

bn.weight f4 [400]
000000 63 a2 f8 3e dc bb 0c 3f a1 db 18 3f 0e 16 65 3f
       0.4856139 0.5497415 0.5971013 0.8948678
000010 7d 8a 6a 3f 89 88 36 3f 65 b2 87 3a 51 8e f0 3e
       0.91617566 0.71302086 0.0010352848 0.4698358
000020 66 4a fa 3e d2 b8 b3 3f 03 99 26 3f 2e 01 d8 3e
       0.48884887 1.4040778 0.6507723 0.421884
000030 51 2e 4d 3f f7 6a 15 3f d7 8c 23 3f 3e cb a4 3b
       0.801488 0.5836634 0.6388678 0.005029111
000040 2d 9f 21 3f 23 9d 73 3f 13 de fe 3e bc 4d 2f 3f
       0.6313351 0.95161647 0.49778804 0.6847799
000050 76 67 1e 3f b0 d3 83 3f b5 37 18 3f d9 94 67 3f
       0.6187662 1.0298977 0.5946 0.904615
000060 ea d4 f2 3e 93 b6 08 3f b4 65 ef b8 a9 42 fb 3e
       0.47428066 0.53403586 -0.00011415352 0.49074295
000070 20 8a e0 be 08 e5 23 3f dc 68 98 3f f7 2e 1f 3f
       -0.4385538 0.6402135 1.1907 0.6218104
000080 66 fa 34 3f 72 34 00 3f 30 d4 22 3f 99 ab 34 3f
       0.7069458 0.50080025 0.6360502 0.7057434
000090 e0 e1 e9 3e 5f f0 27 3f 7f 71 3d 3f 3d 20 41 3f
       0.4568014 0.6560115 0.74001306 0.75439817
0000a0 e2 31 04 3f 36 c7 e1 3e 53 64 34 3f 5a 4c a9 3e
       0.51638615 0.44097298 0.7046558 0.33066064
0000b0 c3 60 66 3f 93 f7 1e 3f 72 f3 55 3f 4b df 37 3f
       0.89991397 0.6209652 0.83574593 0.71825093
0000c0 6d 4d 1f 3f cf 20 18 3f 2b 21 04 3f ac 5d 0a 3f
       0.6222752 0.5942506 0.5161311 0.5404918
0000d0 4c 66 19 3f 22 b2 6f 3f dd 75 a7 3f d5 fe eb 3e
       0.5992172 0.93631184 1.3082844 0.4609286
0000e0 c8 54 f0 3e d1 9e f0 3e a5 00 37 3f 68 d8 7e 3f
       0.46939683 0.46996167 0.7148536 0.9954896
0000f0 74 27 df 3e 14 fe 97 3f cc f3 38 3f 89 f6 36 3f
       0.43584788 1.1874413 0.72247005 0.7146993
000100 61 59 33 3f 69 51 a2 3e 40 95 19 3f a8 dd 4c 3f
       0.70058256 0.31702736 0.5999336 0.8002572
000110 7c d1 58 3f 7c 07 f1 3e 86 ff 4a 3f 66 0a 08 3f
       0.8469465 0.47076023 0.7929615 0.53140867
000120 a3 1f 39 3f c2 bd 2b 3f 85 92 22 3f 39 08 17 3f
       0.723139 0.6708642 0.6350482 0.5899692
000130 e5 01 70 3f 88 e5 45 3f 2f f7 16 3f 65 23 13 3f
       0.9375289 0.7730336 0.5897092 0.5747588
000140 8f 47 98 3e 2e 55 78 3f ca e3 dc 3e 60 ae 43 3f
       0.29742095 0.97004974 0.4314254 0.7643795
000150 e8 88 74 3f 65 de a0 3f 5b 54 08 3f 21 aa f7 3e
       0.955214 1.256787 0.53253716 0.48371986
000160 ba c5 13 3f 5f 18 7a 3f 60 91 7f 3f 09 27 70 3f
       0.5772358 0.9769344 0.998312 0.9380956
000170 57 ba 65 3f 51 c2 2a 3f b3 3c 02 3f 17 99 89 3f
       0.8973746 0.66702753 0.5087387 1.0749844
000180 16 8d ae 3f ef 3b 7a 3f b0 50 46 3f 8e ba c5 3e
       1.3636806 0.977477 0.7746687 0.38618892
000190 63 13 b8 3e 38 4e 01 3f 5f 91 34 3f 1e d2 db 3e
       0.3595229 0.5050998 0.7053432 0.42933744
0001a0 4f 38 09 3f 9a 23 29 3f 2e 18 ac bb 30 63 1a 3f
       0.53601545 0.6606995 -0.005251906 0.603076
0001b0 54 5a 5b 3f 55 86 46 3f 96 0a 06 3f fc fe 00 3f
       0.85684705 0.77548724 0.523599 0.50389075
0001c0 a5 91 24 3f 08 e3 25 3f ce f8 0b 3f 9a bc 2b 3f
       0.64284736 0.6479955 0.5467652 0.6708466
0001d0 16 65 4f 3f cc 6d 4e 3f 87 b7 2c 3f a3 af 77 3f
       0.8101362 0.80636287 0.6746754 0.96752375
0001e0 f4 55 91 3f 3c 3c 9c 3f fb af 82 3f fa 54 51 3f
       1.1354356 1.2205882 1.0209955 0.8177029
0001f0 4d fd 0a 3f 62 23 63 3f 69 f6 4d 3f ad de a4 3e
       0.54292756 0.88725865 0.8045412 0.32201138
000200 48 f0 32 3f 35 96 2a 3f f6 18 14 3f 08 5e 01 3f
       0.6989789 0.6663545 0.5785059 0.50534105
000210 c1 88 a8 3f 75 54 00 3f ea de 4e 3f 11 f6 1c 3f
       1.3166734 0.5012887 0.8080889 0.6131297
000220 e5 f8 d4 3e 2e ab 03 3f 8e 35 3a 3f 16 7c fe 3e
       0.4159614 0.51433074 0.7273797 0.49704045
000230 9b 45 0d 3f f8 6c 13 3f 01 b0 21 3f b0 d6 0c 3f
       0.55184335 0.5758815 0.63159186 0.5501509
000240 25 36 53 3f c5 69 88 3f 51 5f 57 3f 2d 72 0b 3f
       0.82504493 1.0657278 0.84129816 0.54471093
000250 fb 41 3c 3f b3 75 2c 3f 2f fc 19 3f fc 0c 20 3f
       0.7353818 0.67367095 0.60150427 0.6251981
000260 ab af 39 3f 65 81 01 3f d8 dd df 3e 10 b1 66 3f
       0.72533673 0.50588065 0.4372394 0.90113926
000270 c5 8f 0e 3f 86 5a 3c 3f dd 25 d4 3e f3 37 06 3f
       0.55688125 0.7357563 0.41435137 0.5242912
000280 39 a3 8b 3f 08 90 5a 3f 28 2b 1f 3f 81 52 8c 3f
       1.0909187 0.85376024 0.62175226 1.0962678
000290 8c d4 6a 3f 9e 92 6b 3f 23 e4 3e 3f 56 c9 08 3f
       0.9173057 0.92020595 0.7456686 0.53432214
0002a0 ab b8 04 3f 0a f6 5c 3f d2 ec 1e 3f 78 51 30 3f
       0.5184428 0.86312926 0.6208011 0.6887431
0002b0 e2 67 f1 3e de 10 0c 3f 94 d9 e3 3e 1f d6 32 3f
       0.4714957 0.5471324 0.44501936 0.6985797
0002c0 38 b9 75 3f 17 28 12 3f 3b 92 97 3f 57 2b 09 3f
       0.95985746 0.5709242 1.1841501 0.53581756
0002d0 80 f6 15 3f 57 50 0f 3f 15 64 37 3f 6f de 81 3f
       0.58579254 0.55981964 0.7163709 1.0146006
0002e0 f0 5e 0f 3f 45 7e 91 3e a6 71 33 3f a4 82 34 3f
       0.5600424 0.28416649 0.7009529 0.7051184
0002f0 8f 62 18 3f 8a 30 08 40 69 95 06 3f b8 f5 26 3f
       0.5952539 2.1279626 0.5257173 0.6521869
000300 84 4b 17 3f 66 bc 05 3f 28 cf 37 3f 4c f7 7e 3f
       0.590996 0.522406 0.7180047 0.99596095
000310 bd 82 29 3f 9a 53 f4 3e a9 79 2a 3f 54 c9 21 3f
       0.66215116 0.47720033 0.6659189 0.6319783
000320 cc 93 17 3f 1d 54 65 3f 3c 6d e1 3e 42 f8 ca 3e
       0.59209895 0.8958147 0.44028652 0.3964253
000330 ce e1 68 3f 01 00 0f 3f 8f 58 01 3f 48 13 57 b9
       0.9096955 0.5585938 0.50525755 -0.0002051118
000340 3f c9 05 3f 4a f9 4c 3f 8c b6 27 3f a3 40 4f 3f
       0.522602 0.80067885 0.6551292 0.80958
000350 06 7e f3 3e d3 ae 43 3f 2c af 01 3f 56 19 28 3b
       0.47557086 0.76438636 0.50657916 0.0025649867
000360 43 0a cd 3e 24 2a 22 3f ca 9d 13 3f 27 3a 23 3f
       0.40046892 0.6334555 0.5766264 0.6376061
000370 7f cb 14 3f 0a 0e 1a 3f b8 3a 2a 3f 72 6e 70 3f
       0.5812301 0.6017767 0.6649585 0.93918526
000380 30 22 f0 3e 33 86 2d 3c ed ba 15 3e 9e 11 1e 3f
       0.46901083 0.010591078 0.14622088 0.6174563
000390 3e 50 4a 3f 8f ba 3e 3f 0b 11 4d 3f 6f 90 c6 3e
       0.7902869 0.74503416 0.8010413 0.3878207
0003a0 8d e8 4c 3f 08 e3 45 3f 5a 75 57 3f a9 1d 29 3f
       0.80042344 0.7729955 0.8416344 0.6606088
0003b0 ad 1d 45 3f 97 41 2a ba 85 5d 16 3f 0a 8f 28 3f
       0.76998407 -0.0006494759 0.5873645 0.6584326
0003c0 9d 47 2b 3f ac ce db 3e 9e 3d aa 3f 74 7d a6 3f
       0.6690615 0.42931116 1.3300054 1.3007035
0003d0 20 52 fd 3e c5 7d 13 3f bd 04 d4 3e c2 5a 42 3f
       0.4947672 0.57613784 0.41409865 0.75919735
0003e0 55 a5 f7 3e 4d 5d 1e 3f b5 a4 19 3f 0f 0a 47 3f
       0.48368326 0.61861116 0.6001695 0.77749723
0003f0 08 09 12 3f ec 76 04 3f b7 3e e3 3e 58 47 e0 3e
       0.5704503 0.5174396 0.44383785 0.4380443

bn.bias f4 [400]
000000 69 17 1e bf d7 87 ec be 65 2b 40 bf 04 9c 59 bf
       -0.6175447 -0.46197388 -0.75066215 -0.85003686
000010 d2 31 54 bf 66 8c 38 bf 4a 3e 3d bc ac df 3a be
       -0.8288852 -0.7208923 -0.011550495 -0.18249387
000020 4b eb 64 bf fe 2a 6e bf 9f fc 30 bf cb f7 0a bf
       -0.8942153 -0.9303435 -0.6913547 -0.5428435
000030 07 0f 32 bf fc 2a 8b bf 64 be 0b bf 3f 44 25 bd
       -0.6955418 -1.0872493 -0.5458739 -0.040348288
000040 d3 fe 3e bf 31 80 4f bf 71 4b 3b bf 47 11 87 bf
       -0.7460758 -0.8105498 -0.7316199 -1.0552148
000050 a3 08 c9 be 93 e3 a5 bf 74 f1 01 bf df 6b 26 bf
       -0.39264402 -1.2960075 -0.50759053 -0.6500835
000060 8f c5 2c bf 62 61 ae be dc 8e b2 bd 3a b2 39 bf
       -0.6748895 -0.34058672 -0.087186545 -0.7253758
000070 5e 66 ef be 5d 61 f3 bd 60 d8 85 bf 77 f7 e6 be
       -0.46757787 -0.11883805 -1.0456657 -0.45110676
000080 dd 85 14 be e2 79 8d be 27 fe 0a bf 01 ca 83 bf
       -0.1450419 -0.27632052 -0.54294056 -1.0296022
000090 82 de c4 be a1 1c 6a bf 58 c7 38 bf 25 36 26 bf
       -0.3845101 -0.91449934 -0.72179174 -0.6492637
0000a0 a8 29 e2 be fd 4b 3a be b0 47 2c bf ce 20 e3 bd
       -0.44172406 -0.1819305 -0.67296886 -0.110902414
0000b0 5e 34 69 bf cd 49 05 bf c1 3d 0d bf 54 e4 97 be
       -0.9109553 -0.52065736 -0.55172354 -0.29666388
0000c0 8b 6b d1 be ac 22 ec be e4 e5 86 be 37 9c 0c bf
       -0.4090236 -0.46120203 -0.26347268 -0.54925865
0000d0 fc 61 07 bf 02 b3 a4 bf 40 4d 72 bf 04 6f 7d be
       -0.5288389 -1.2867129 -0.94649124 -0.2474938
0000e0 5a 2c 89 be f3 ca 5b bc 6e 69 42 bf 55 4c 81 bf
       -0.2679165 -0.013415086 -0.7594212 -1.010142
0000f0 cb 03 82 be 17 fb fc be 9c 63 f0 be 80 26 03 bf
       -0.2539352 -0.49410316 -0.46950996 -0.5123062
000100 71 1d 1a bf f5 f2 71 3d ad e2 38 bf 06 f4 5d bf
       -0.60201174 0.059069593 -0.7222088 -0.86700475
000110 11 52 45 bf 58 c3 05 be aa 5b 39 bf 5e a3 08 bf
       -0.7707835 -0.13062799 -0.72405493 -0.5337428
000120 57 77 06 bf 3d c2 f2 be df 0a b9 be 89 c9 d7 be
       -0.5252585 -0.47413817 -0.36141106 -0.42145947
000130 cc 6c 89 bf 19 64 61 bf 15 ee 1a bf 04 f6 1b bf
       -1.0736327 -0.8804336 -0.60519534 -0.60922265
000140 4c 26 c5 bd c8 e8 87 bf 39 01 37 bf 69 73 46 bf
       -0.09626445 -1.0617914 -0.7148624 -0.7751985
000150 bd e5 98 bf a6 f0 f8 be a3 67 50 be 21 24 9c bd
       -1.194511 -0.486211 -0.20352034 -0.076240785
000160 fb 8a 25 bf 1b b5 26 bf 3a bf 46 bf a7 a4 64 bf
       -0.6466519 -0.65120095 -0.7763554 -0.8931374
000170 57 ce 7e bf 7d fc ea be a8 a8 86 bd d3 70 4c bf
       -0.995336 -0.45895758 -0.065751374 -0.79859656
000180 a6 1a a2 be 5c 86 94 bf 5b fa 3b bf 8d f1 47 be
       -0.31660956 -1.1603503 -0.7342889 -0.19525738
000190 55 8c b0 be 3c a1 48 bf ca f4 e8 be 37 5f 02 be
       -0.34482065 -0.78371024 -0.4549926 -0.12731634
0001a0 61 fa e3 bd eb 28 56 bf 81 e9 73 bd 6d 7f e7 be
       -0.1113174 -0.83656186 -0.05954886 -0.45214406
0001b0 b1 c1 f0 be 4b 3c de be 27 46 a8 be 21 20 4e bf
       -0.47022775 -0.43405375 -0.32866022 -0.80517775
0001c0 e6 d2 e0 be 60 5f b8 be 6f df b9 be f6 d4 0c bf
       -0.43910903 -0.36010265 -0.3630328 -0.5501245
0001d0 fe b7 90 bf e0 0b 80 bf e3 45 b8 be cf 73 38 bf
       -1.130615 -1.0003624 -0.3599082 -0.7205171
0001e0 7e 5a 72 bf 4d 98 39 bf 6e 5d 74 bf 11 8a ec be
       -0.9466933 -0.7249802 -0.9545506 -0.46199086
0001f0 c6 ab 11 bf f5 d2 36 bf f9 26 5c bf e7 fa 8d 3e
       -0.5690273 -0.71415645 -0.8599697 0.27730486
000200 ca 70 3d bf db 3e 99 3e 97 65 17 bf 12 e6 fa be
       -0.7400023 0.29930767 -0.5913939 -0.49003655
000210 a6 1c 5c bf 4b ac 85 be 89 90 03 bf 2d fd 24 bf
       -0.85981214 -0.26108012 -0.5139242 -0.64448816
000220 fc 00 e1 be 25 23 b1 be 02 f0 15 bf f1 f3 fb be
       -0.43946064 -0.34597126 -0.5856935 -0.4920955
000230 99 eb f5 be 35 1a 0e bf 7e 91 3b bf 6b b1 00 bf
       -0.4803131 -0.5550874 -0.7326888 -0.5027072
000240 7b 3a 72 be a8 8f 7f bf 4a 57 88 bf 3f 3e 25 be
       -0.23655121 -0.9982858 -1.0651639 -0.16137026
000250 ac be e9 be a8 80 1c bf 55 04 f4 be b2 43 68 bf
       -0.45653284 -0.61133814 -0.47659555 -0.90728295
000260 db 5a 2e bf 1f 5b 36 bf cd 5f d8 be db fb 8b bf
       -0.68107384 -0.7123279 -0.4226059 -1.0936235
000270 57 51 0d be d0 3c dd be 6c c3 d1 be ed c8 f2 be
       -0.1380056 -0.4321046 -0.40969408 -0.4741892
000280 48 39 94 bf 25 35 60 bd 75 5b 83 be 02 5a b7 be
       -1.1579981 -0.054738183 -0.25655714 -0.35810858
000290 63 d0 24 bf b2 1f 70 bf 5c d7 56 bf ce 3b 99 be
       -0.6438047 -0.93798363 -0.8392236 -0.2992844
0002a0 c6 da 7b bd 89 7e d7 be a0 1a 3a bf 15 65 4f bf
       -0.061487935 -0.42088726 -0.72696877 -0.81013614
0002b0 3b ef 18 bf 5b c0 1b bf 2d 60 ab be 12 c5 19 bf
       -0.59740037 -0.60840386 -0.33471814 -0.6006633
0002c0 f5 a2 6c bf a4 ef 16 bf 1c 35 8a bf 3d dd f9 be
       -0.9243615 -0.5895941 -1.0797458 -0.48801604
0002d0 58 86 1e bf b4 c0 aa be d3 43 08 bf ef 7b 87 bf
       -0.6192374 -0.33350146 -0.5322849 -1.0584697
0002e0 55 5c 56 be 6c 70 00 3e 9f 1d 8f bf 3b 4e 2e bf
       -0.2093366 0.12542886 -1.1180915 -0.6808812
0002f0 a7 3f fc be d9 e9 32 bf c0 80 97 be 12 43 9e be
       -0.49267313 -0.69888073 -0.29590416 -0.30910546
000300 b2 f0 c3 be 7e eb fe be 81 29 3f bf 1c 50 9c bf
       -0.38269573 -0.4978904 -0.74672705 -1.2211947
000310 c0 2b d5 be 25 33 b2 be 93 c8 0a bf 72 f4 5c bf
       -0.4163494 -0.34804645 -0.542123 -0.86310494
000320 13 b2 25 bf 32 8d 51 bf da 9a 15 bf 34 93 d8 bd
       -0.64724845 -0.8185607 -0.5843941 -0.10574952
000330 a6 46 e5 be d6 bd 2c bf a6 ec f6 bd 3b 00 fc bb
       -0.44780463 -0.67477167 -0.12056856 -0.007690457
000340 28 e0 2b bf c4 c1 85 bf f7 bb a6 be ca db ab be
       -0.6713891 -1.0449758 -0.3256528 -0.33566123
000350 30 b2 c6 bd 9f f6 52 bf ac ab 34 be 44 25 29 bd
       -0.09701955 -0.82407564 -0.17643613 -0.041295305
000360 9a 4f ab 3e ba e9 07 bf 1f 79 10 bf a9 bd 88 be
       0.3345917 -0.53091013 -0.56434816 -0.267072
000370 f3 28 1e bf f6 9f 21 bf 75 2c 29 bf 04 b4 b6 be
       -0.61781234 -0.63134706 -0.6608346 -0.35684216
000380 85 a8 83 be 94 db a4 bd ad 04 e7 bc 0a fd f5 be
       -0.25714508 -0.08049694 -0.028200472 -0.48044616
000390 a6 df 33 bf d3 a7 9a be 65 8d 2f bf c4 ed ad bd
       -0.70263135 -0.30206165 -0.68575126 -0.08492616
0003a0 49 49 32 bf 0d ba 57 bf f8 c2 35 be 05 79 25 bf
       -0.69643074 -0.84268266 -0.17750156 -0.64637786
0003b0 62 ea 83 bf 80 88 09 bd db 2e 06 bf 20 4c 18 bf
       -1.0305903 -0.033577442 -0.52415246 -0.5949116
0003c0 57 a5 a8 3d 1f 17 08 bf e9 84 73 be 88 5a 38 bf
       0.08234661 -0.5316028 -0.2378117 -0.7201314
0003d0 b7 98 b7 be ba 01 37 ba 8d 49 e4 be 7b 6d 19 bf
       -0.358587 -0.0006981153 -0.44587365 -0.5993268
0003e0 91 87 af bd cd cb 3a bf 2e af 9b be 94 66 0c bf
       -0.08570779 -0.72967225 -0.3040709 -0.5484402
0003f0 6c e4 f4 be 2d 86 31 bf ba 23 3b be e6 1b a9 be
       -0.47830522 -0.6934536 -0.18275347 -0.33029097
